…
 input
User config: 
env MultiResolution
data_root /DATA4_DB3/data/public/
train_image_paths /DATA4_DB3/data/public/MURA-v1.1/train_image_paths.csv
test_image_paths /DATA4_DB3/data/public/MURA-v1.1/valid_image_paths.csv
load_model_path None
batch_size 4
num_workers 4
print_freq 50
debug_file tmp/debug
result_file result.csv
max_epoch 30
lr 0.0001
lr_pre 1e-05
lr_decay 0.5
weight_decay 0.0001
use_gpu True
parallel True
num_of_gpu 4
parse <bound method Config.parse of <config.config.Config object at 0x7f47bf5a3550>>
DataParallel(
  (module): MultiResolutionNet(
    (prenet): Sequential(
      (0): Conv2d(3, 64, kernel_size=(7, 7), stride=(2, 2), padding=(3, 3), bias=False)
      (1): BatchNorm2d(64, eps=1e-05, momentum=0.1, affine=True)
      (2): ReLU(inplace)
      (3): MaxPool2d(kernel_size=(3, 3), stride=(2, 2), padding=(1, 1), dilation=(1, 1), ceil_mode=False)
    )
    (reslayer1): Sequential(
      (0): Bottleneck(
        (conv1): Conv2d(64, 64, kernel_size=(1, 1), stride=(1, 1), bias=False)
        (bn1): BatchNorm2d(64, eps=1e-05, momentum=0.1, affine=True)
        (conv2): Conv2d(64, 64, kernel_size=(3, 3), stride=(1, 1), padding=(1, 1), bias=False)
        (bn2): BatchNorm2d(64, eps=1e-05, momentum=0.1, affine=True)
        (conv3): Conv2d(64, 256, kernel_size=(1, 1), stride=(1, 1), bias=False)
        (bn3): BatchNorm2d(256, eps=1e-05, momentum=0.1, affine=True)
        (relu): ReLU(inplace)
        (downsample): Sequential(
          (0): Conv2d(64, 256, kernel_size=(1, 1), stride=(1, 1), bias=False)
          (1): BatchNorm2d(256, eps=1e-05, momentum=0.1, affine=True)
        )
      )
      (1): Bottleneck(
        (conv1): Conv2d(256, 64, kernel_size=(1, 1), stride=(1, 1), bias=False)
        (bn1): BatchNorm2d(64, eps=1e-05, momentum=0.1, affine=True)
        (conv2): Conv2d(64, 64, kernel_size=(3, 3), stride=(1, 1), padding=(1, 1), bias=False)
        (bn2): BatchNorm2d(64, eps=1e-05, momentum=0.1, affine=True)
        (conv3): Conv2d(64, 256, kernel_size=(1, 1), stride=(1, 1), bias=False)
        (bn3): BatchNorm2d(256, eps=1e-05, momentum=0.1, affine=True)
        (relu): ReLU(inplace)
      )
      (2): Bottleneck(
        (conv1): Conv2d(256, 64, kernel_size=(1, 1), stride=(1, 1), bias=False)
        (bn1): BatchNorm2d(64, eps=1e-05, momentum=0.1, affine=True)
        (conv2): Conv2d(64, 64, kernel_size=(3, 3), stride=(1, 1), padding=(1, 1), bias=False)
        (bn2): BatchNorm2d(64, eps=1e-05, momentum=0.1, affine=True)
        (conv3): Conv2d(64, 256, kernel_size=(1, 1), stride=(1, 1), bias=False)
        (bn3): BatchNorm2d(256, eps=1e-05, momentum=0.1, affine=True)
        (relu): ReLU(inplace)
      )
    )
    (reslayer2): Sequential(
      (0): Bottleneck(
        (conv1): Conv2d(256, 128, kernel_size=(1, 1), stride=(1, 1), bias=False)
        (bn1): BatchNorm2d(128, eps=1e-05, momentum=0.1, affine=True)
        (conv2): Conv2d(128, 128, kernel_size=(3, 3), stride=(2, 2), padding=(1, 1), bias=False)
        (bn2): BatchNorm2d(128, eps=1e-05, momentum=0.1, affine=True)
        (conv3): Conv2d(128, 512, kernel_size=(1, 1), stride=(1, 1), bias=False)
        (bn3): BatchNorm2d(512, eps=1e-05, momentum=0.1, affine=True)
        (relu): ReLU(inplace)
        (downsample): Sequential(
          (0): Conv2d(256, 512, kernel_size=(1, 1), stride=(2, 2), bias=False)
          (1): BatchNorm2d(512, eps=1e-05, momentum=0.1, affine=True)
        )
      )
      (1): Bottleneck(
        (conv1): Conv2d(512, 128, kernel_size=(1, 1), stride=(1, 1), bias=False)
        (bn1): BatchNorm2d(128, eps=1e-05, momentum=0.1, affine=True)
        (conv2): Conv2d(128, 128, kernel_size=(3, 3), stride=(1, 1), padding=(1, 1), bias=False)
        (bn2): BatchNorm2d(128, eps=1e-05, momentum=0.1, affine=True)
        (conv3): Conv2d(128, 512, kernel_size=(1, 1), stride=(1, 1), bias=False)
        (bn3): BatchNorm2d(512, eps=1e-05, momentum=0.1, affine=True)
        (relu): ReLU(inplace)
      )
      (2): Bottleneck(
        (conv1): Conv2d(512, 128, kernel_size=(1, 1), stride=(1, 1), bias=False)
        (bn1): BatchNorm2d(128, eps=1e-05, momentum=0.1, affine=True)
        (conv2): Conv2d(128, 128, kernel_size=(3, 3), stride=(1, 1), padding=(1, 1), bias=False)
        (bn2): BatchNorm2d(128, eps=1e-05, momentum=0.1, affine=True)
        (conv3): Conv2d(128, 512, kernel_size=(1, 1), stride=(1, 1), bias=False)
        (bn3): BatchNorm2d(512, eps=1e-05, momentum=0.1, affine=True)
        (relu): ReLU(inplace)
      )
      (3): Bottleneck(
        (conv1): Conv2d(512, 128, kernel_size=(1, 1), stride=(1, 1), bias=False)
        (bn1): BatchNorm2d(128, eps=1e-05, momentum=0.1, affine=True)
        (conv2): Conv2d(128, 128, kernel_size=(3, 3), stride=(1, 1), padding=(1, 1), bias=False)
        (bn2): BatchNorm2d(128, eps=1e-05, momentum=0.1, affine=True)
        (conv3): Conv2d(128, 512, kernel_size=(1, 1), stride=(1, 1), bias=False)
        (bn3): BatchNorm2d(512, eps=1e-05, momentum=0.1, affine=True)
        (relu): ReLU(inplace)
      )
      (4): Bottleneck(
        (conv1): Conv2d(512, 128, kernel_size=(1, 1), stride=(1, 1), bias=False)
        (bn1): BatchNorm2d(128, eps=1e-05, momentum=0.1, affine=True)
        (conv2): Conv2d(128, 128, kernel_size=(3, 3), stride=(1, 1), padding=(1, 1), bias=False)
        (bn2): BatchNorm2d(128, eps=1e-05, momentum=0.1, affine=True)
        (conv3): Conv2d(128, 512, kernel_size=(1, 1), stride=(1, 1), bias=False)
        (bn3): BatchNorm2d(512, eps=1e-05, momentum=0.1, affine=True)
        (relu): ReLU(inplace)
      )
      (5): Bottleneck(
        (conv1): Conv2d(512, 128, kernel_size=(1, 1), stride=(1, 1), bias=False)
        (bn1): BatchNorm2d(128, eps=1e-05, momentum=0.1, affine=True)
        (conv2): Conv2d(128, 128, kernel_size=(3, 3), stride=(1, 1), padding=(1, 1), bias=False)
        (bn2): BatchNorm2d(128, eps=1e-05, momentum=0.1, affine=True)
        (conv3): Conv2d(128, 512, kernel_size=(1, 1), stride=(1, 1), bias=False)
        (bn3): BatchNorm2d(512, eps=1e-05, momentum=0.1, affine=True)
        (relu): ReLU(inplace)
      )
      (6): Bottleneck(
        (conv1): Conv2d(512, 128, kernel_size=(1, 1), stride=(1, 1), bias=False)
        (bn1): BatchNorm2d(128, eps=1e-05, momentum=0.1, affine=True)
        (conv2): Conv2d(128, 128, kernel_size=(3, 3), stride=(1, 1), padding=(1, 1), bias=False)
        (bn2): BatchNorm2d(128, eps=1e-05, momentum=0.1, affine=True)
        (conv3): Conv2d(128, 512, kernel_size=(1, 1), stride=(1, 1), bias=False)
        (bn3): BatchNorm2d(512, eps=1e-05, momentum=0.1, affine=True)
        (relu): ReLU(inplace)
      )
      (7): Bottleneck(
        (conv1): Conv2d(512, 128, kernel_size=(1, 1), stride=(1, 1), bias=False)
        (bn1): BatchNorm2d(128, eps=1e-05, momentum=0.1, affine=True)
        (conv2): Conv2d(128, 128, kernel_size=(3, 3), stride=(1, 1), padding=(1, 1), bias=False)
        (bn2): BatchNorm2d(128, eps=1e-05, momentum=0.1, affine=True)
        (conv3): Conv2d(128, 512, kernel_size=(1, 1), stride=(1, 1), bias=False)
        (bn3): BatchNorm2d(512, eps=1e-05, momentum=0.1, affine=True)
        (relu): ReLU(inplace)
      )
    )
    (reslayer3): Sequential(
      (0): Bottleneck(
        (conv1): Conv2d(512, 256, kernel_size=(1, 1), stride=(1, 1), bias=False)
        (bn1): BatchNorm2d(256, eps=1e-05, momentum=0.1, affine=True)
        (conv2): Conv2d(256, 256, kernel_size=(3, 3), stride=(2, 2), padding=(1, 1), bias=False)
        (bn2): BatchNorm2d(256, eps=1e-05, momentum=0.1, affine=True)
        (conv3): Conv2d(256, 1024, kernel_size=(1, 1), stride=(1, 1), bias=False)
        (bn3): BatchNorm2d(1024, eps=1e-05, momentum=0.1, affine=True)
        (relu): ReLU(inplace)
        (downsample): Sequential(
          (0): Conv2d(512, 1024, kernel_size=(1, 1), stride=(2, 2), bias=False)
          (1): BatchNorm2d(1024, eps=1e-05, momentum=0.1, affine=True)
        )
      )
      (1): Bottleneck(
        (conv1): Conv2d(1024, 256, kernel_size=(1, 1), stride=(1, 1), bias=False)
        (bn1): BatchNorm2d(256, eps=1e-05, momentum=0.1, affine=True)
        (conv2): Conv2d(256, 256, kernel_size=(3, 3), stride=(1, 1), padding=(1, 1), bias=False)
        (bn2): BatchNorm2d(256, eps=1e-05, momentum=0.1, affine=True)
        (conv3): Conv2d(256, 1024, kernel_size=(1, 1), stride=(1, 1), bias=False)
        (bn3): BatchNorm2d(1024, eps=1e-05, momentum=0.1, affine=True)
        (relu): ReLU(inplace)
      )
      (2): Bottleneck(
        (conv1): Conv2d(1024, 256, kernel_size=(1, 1), stride=(1, 1), bias=False)
        (bn1): BatchNorm2d(256, eps=1e-05, momentum=0.1, affine=True)
        (conv2): Conv2d(256, 256, kernel_size=(3, 3), stride=(1, 1), padding=(1, 1), bias=False)
        (bn2): BatchNorm2d(256, eps=1e-05, momentum=0.1, affine=True)
        (conv3): Conv2d(256, 1024, kernel_size=(1, 1), stride=(1, 1), bias=False)
        (bn3): BatchNorm2d(1024, eps=1e-05, momentum=0.1, affine=True)
        (relu): ReLU(inplace)
      )
      (3): Bottleneck(
        (conv1): Conv2d(1024, 256, kernel_size=(1, 1), stride=(1, 1), bias=False)
        (bn1): BatchNorm2d(256, eps=1e-05, momentum=0.1, affine=True)
        (conv2): Conv2d(256, 256, kernel_size=(3, 3), stride=(1, 1), padding=(1, 1), bias=False)
        (bn2): BatchNorm2d(256, eps=1e-05, momentum=0.1, affine=True)
        (conv3): Conv2d(256, 1024, kernel_size=(1, 1), stride=(1, 1), bias=False)
        (bn3): BatchNorm2d(1024, eps=1e-05, momentum=0.1, affine=True)
        (relu): ReLU(inplace)
      )
      (4): Bottleneck(
        (conv1): Conv2d(1024, 256, kernel_size=(1, 1), stride=(1, 1), bias=False)
        (bn1): BatchNorm2d(256, eps=1e-05, momentum=0.1, affine=True)
        (conv2): Conv2d(256, 256, kernel_size=(3, 3), stride=(1, 1), padding=(1, 1), bias=False)
        (bn2): BatchNorm2d(256, eps=1e-05, momentum=0.1, affine=True)
        (conv3): Conv2d(256, 1024, kernel_size=(1, 1), stride=(1, 1), bias=False)
        (bn3): BatchNorm2d(1024, eps=1e-05, momentum=0.1, affine=True)
        (relu): ReLU(inplace)
      )
      (5): Bottleneck(
        (conv1): Conv2d(1024, 256, kernel_size=(1, 1), stride=(1, 1), bias=False)
        (bn1): BatchNorm2d(256, eps=1e-05, momentum=0.1, affine=True)
        (conv2): Conv2d(256, 256, kernel_size=(3, 3), stride=(1, 1), padding=(1, 1), bias=False)
        (bn2): BatchNorm2d(256, eps=1e-05, momentum=0.1, affine=True)
        (conv3): Conv2d(256, 1024, kernel_size=(1, 1), stride=(1, 1), bias=False)
        (bn3): BatchNorm2d(1024, eps=1e-05, momentum=0.1, affine=True)
        (relu): ReLU(inplace)
      )
      (6): Bottleneck(
        (conv1): Conv2d(1024, 256, kernel_size=(1, 1), stride=(1, 1), bias=False)
        (bn1): BatchNorm2d(256, eps=1e-05, momentum=0.1, affine=True)
        (conv2): Conv2d(256, 256, kernel_size=(3, 3), stride=(1, 1), padding=(1, 1), bias=False)
        (bn2): BatchNorm2d(256, eps=1e-05, momentum=0.1, affine=True)
        (conv3): Conv2d(256, 1024, kernel_size=(1, 1), stride=(1, 1), bias=False)
        (bn3): BatchNorm2d(1024, eps=1e-05, momentum=0.1, affine=True)
        (relu): ReLU(inplace)
      )
      (7): Bottleneck(
        (conv1): Conv2d(1024, 256, kernel_size=(1, 1), stride=(1, 1), bias=False)
        (bn1): BatchNorm2d(256, eps=1e-05, momentum=0.1, affine=True)
        (conv2): Conv2d(256, 256, kernel_size=(3, 3), stride=(1, 1), padding=(1, 1), bias=False)
        (bn2): BatchNorm2d(256, eps=1e-05, momentum=0.1, affine=True)
        (conv3): Conv2d(256, 1024, kernel_size=(1, 1), stride=(1, 1), bias=False)
        (bn3): BatchNorm2d(1024, eps=1e-05, momentum=0.1, affine=True)
        (relu): ReLU(inplace)
      )
      (8): Bottleneck(
        (conv1): Conv2d(1024, 256, kernel_size=(1, 1), stride=(1, 1), bias=False)
        (bn1): BatchNorm2d(256, eps=1e-05, momentum=0.1, affine=True)
        (conv2): Conv2d(256, 256, kernel_size=(3, 3), stride=(1, 1), padding=(1, 1), bias=False)
        (bn2): BatchNorm2d(256, eps=1e-05, momentum=0.1, affine=True)
        (conv3): Conv2d(256, 1024, kernel_size=(1, 1), stride=(1, 1), bias=False)
        (bn3): BatchNorm2d(1024, eps=1e-05, momentum=0.1, affine=True)
        (relu): ReLU(inplace)
      )
      (9): Bottleneck(
        (conv1): Conv2d(1024, 256, kernel_size=(1, 1), stride=(1, 1), bias=False)
        (bn1): BatchNorm2d(256, eps=1e-05, momentum=0.1, affine=True)
        (conv2): Conv2d(256, 256, kernel_size=(3, 3), stride=(1, 1), padding=(1, 1), bias=False)
        (bn2): BatchNorm2d(256, eps=1e-05, momentum=0.1, affine=True)
        (conv3): Conv2d(256, 1024, kernel_size=(1, 1), stride=(1, 1), bias=False)
        (bn3): BatchNorm2d(1024, eps=1e-05, momentum=0.1, affine=True)
        (relu): ReLU(inplace)
      )
      (10): Bottleneck(
        (conv1): Conv2d(1024, 256, kernel_size=(1, 1), stride=(1, 1), bias=False)
        (bn1): BatchNorm2d(256, eps=1e-05, momentum=0.1, affine=True)
        (conv2): Conv2d(256, 256, kernel_size=(3, 3), stride=(1, 1), padding=(1, 1), bias=False)
        (bn2): BatchNorm2d(256, eps=1e-05, momentum=0.1, affine=True)
        (conv3): Conv2d(256, 1024, kernel_size=(1, 1), stride=(1, 1), bias=False)
        (bn3): BatchNorm2d(1024, eps=1e-05, momentum=0.1, affine=True)
        (relu): ReLU(inplace)
      )
      (11): Bottleneck(
        (conv1): Conv2d(1024, 256, kernel_size=(1, 1), stride=(1, 1), bias=False)
        (bn1): BatchNorm2d(256, eps=1e-05, momentum=0.1, affine=True)
        (conv2): Conv2d(256, 256, kernel_size=(3, 3), stride=(1, 1), padding=(1, 1), bias=False)
        (bn2): BatchNorm2d(256, eps=1e-05, momentum=0.1, affine=True)
        (conv3): Conv2d(256, 1024, kernel_size=(1, 1), stride=(1, 1), bias=False)
        (bn3): BatchNorm2d(1024, eps=1e-05, momentum=0.1, affine=True)
        (relu): ReLU(inplace)
      )
      (12): Bottleneck(
        (conv1): Conv2d(1024, 256, kernel_size=(1, 1), stride=(1, 1), bias=False)
        (bn1): BatchNorm2d(256, eps=1e-05, momentum=0.1, affine=True)
        (conv2): Conv2d(256, 256, kernel_size=(3, 3), stride=(1, 1), padding=(1, 1), bias=False)
        (bn2): BatchNorm2d(256, eps=1e-05, momentum=0.1, affine=True)
        (conv3): Conv2d(256, 1024, kernel_size=(1, 1), stride=(1, 1), bias=False)
        (bn3): BatchNorm2d(1024, eps=1e-05, momentum=0.1, affine=True)
        (relu): ReLU(inplace)
      )
      (13): Bottleneck(
        (conv1): Conv2d(1024, 256, kernel_size=(1, 1), stride=(1, 1), bias=False)
        (bn1): BatchNorm2d(256, eps=1e-05, momentum=0.1, affine=True)
        (conv2): Conv2d(256, 256, kernel_size=(3, 3), stride=(1, 1), padding=(1, 1), bias=False)
        (bn2): BatchNorm2d(256, eps=1e-05, momentum=0.1, affine=True)
        (conv3): Conv2d(256, 1024, kernel_size=(1, 1), stride=(1, 1), bias=False)
        (bn3): BatchNorm2d(1024, eps=1e-05, momentum=0.1, affine=True)
        (relu): ReLU(inplace)
      )
      (14): Bottleneck(
        (conv1): Conv2d(1024, 256, kernel_size=(1, 1), stride=(1, 1), bias=False)
        (bn1): BatchNorm2d(256, eps=1e-05, momentum=0.1, affine=True)
        (conv2): Conv2d(256, 256, kernel_size=(3, 3), stride=(1, 1), padding=(1, 1), bias=False)
        (bn2): BatchNorm2d(256, eps=1e-05, momentum=0.1, affine=True)
        (conv3): Conv2d(256, 1024, kernel_size=(1, 1), stride=(1, 1), bias=False)
        (bn3): BatchNorm2d(1024, eps=1e-05, momentum=0.1, affine=True)
        (relu): ReLU(inplace)
      )
      (15): Bottleneck(
        (conv1): Conv2d(1024, 256, kernel_size=(1, 1), stride=(1, 1), bias=False)
        (bn1): BatchNorm2d(256, eps=1e-05, momentum=0.1, affine=True)
        (conv2): Conv2d(256, 256, kernel_size=(3, 3), stride=(1, 1), padding=(1, 1), bias=False)
        (bn2): BatchNorm2d(256, eps=1e-05, momentum=0.1, affine=True)
        (conv3): Conv2d(256, 1024, kernel_size=(1, 1), stride=(1, 1), bias=False)
        (bn3): BatchNorm2d(1024, eps=1e-05, momentum=0.1, affine=True)
        (relu): ReLU(inplace)
      )
      (16): Bottleneck(
        (conv1): Conv2d(1024, 256, kernel_size=(1, 1), stride=(1, 1), bias=False)
        (bn1): BatchNorm2d(256, eps=1e-05, momentum=0.1, affine=True)
        (conv2): Conv2d(256, 256, kernel_size=(3, 3), stride=(1, 1), padding=(1, 1), bias=False)
        (bn2): BatchNorm2d(256, eps=1e-05, momentum=0.1, affine=True)
        (conv3): Conv2d(256, 1024, kernel_size=(1, 1), stride=(1, 1), bias=False)
        (bn3): BatchNorm2d(1024, eps=1e-05, momentum=0.1, affine=True)
        (relu): ReLU(inplace)
      )
      (17): Bottleneck(
        (conv1): Conv2d(1024, 256, kernel_size=(1, 1), stride=(1, 1), bias=False)
        (bn1): BatchNorm2d(256, eps=1e-05, momentum=0.1, affine=True)
        (conv2): Conv2d(256, 256, kernel_size=(3, 3), stride=(1, 1), padding=(1, 1), bias=False)
        (bn2): BatchNorm2d(256, eps=1e-05, momentum=0.1, affine=True)
        (conv3): Conv2d(256, 1024, kernel_size=(1, 1), stride=(1, 1), bias=False)
        (bn3): BatchNorm2d(1024, eps=1e-05, momentum=0.1, affine=True)
        (relu): ReLU(inplace)
      )
      (18): Bottleneck(
        (conv1): Conv2d(1024, 256, kernel_size=(1, 1), stride=(1, 1), bias=False)
        (bn1): BatchNorm2d(256, eps=1e-05, momentum=0.1, affine=True)
        (conv2): Conv2d(256, 256, kernel_size=(3, 3), stride=(1, 1), padding=(1, 1), bias=False)
        (bn2): BatchNorm2d(256, eps=1e-05, momentum=0.1, affine=True)
        (conv3): Conv2d(256, 1024, kernel_size=(1, 1), stride=(1, 1), bias=False)
        (bn3): BatchNorm2d(1024, eps=1e-05, momentum=0.1, affine=True)
        (relu): ReLU(inplace)
      )
      (19): Bottleneck(
        (conv1): Conv2d(1024, 256, kernel_size=(1, 1), stride=(1, 1), bias=False)
        (bn1): BatchNorm2d(256, eps=1e-05, momentum=0.1, affine=True)
        (conv2): Conv2d(256, 256, kernel_size=(3, 3), stride=(1, 1), padding=(1, 1), bias=False)
        (bn2): BatchNorm2d(256, eps=1e-05, momentum=0.1, affine=True)
        (conv3): Conv2d(256, 1024, kernel_size=(1, 1), stride=(1, 1), bias=False)
        (bn3): BatchNorm2d(1024, eps=1e-05, momentum=0.1, affine=True)
        (relu): ReLU(inplace)
      )
      (20): Bottleneck(
        (conv1): Conv2d(1024, 256, kernel_size=(1, 1), stride=(1, 1), bias=False)
        (bn1): BatchNorm2d(256, eps=1e-05, momentum=0.1, affine=True)
        (conv2): Conv2d(256, 256, kernel_size=(3, 3), stride=(1, 1), padding=(1, 1), bias=False)
        (bn2): BatchNorm2d(256, eps=1e-05, momentum=0.1, affine=True)
        (conv3): Conv2d(256, 1024, kernel_size=(1, 1), stride=(1, 1), bias=False)
        (bn3): BatchNorm2d(1024, eps=1e-05, momentum=0.1, affine=True)
        (relu): ReLU(inplace)
      )
      (21): Bottleneck(
        (conv1): Conv2d(1024, 256, kernel_size=(1, 1), stride=(1, 1), bias=False)
        (bn1): BatchNorm2d(256, eps=1e-05, momentum=0.1, affine=True)
        (conv2): Conv2d(256, 256, kernel_size=(3, 3), stride=(1, 1), padding=(1, 1), bias=False)
        (bn2): BatchNorm2d(256, eps=1e-05, momentum=0.1, affine=True)
        (conv3): Conv2d(256, 1024, kernel_size=(1, 1), stride=(1, 1), bias=False)
        (bn3): BatchNorm2d(1024, eps=1e-05, momentum=0.1, affine=True)
        (relu): ReLU(inplace)
      )
      (22): Bottleneck(
        (conv1): Conv2d(1024, 256, kernel_size=(1, 1), stride=(1, 1), bias=False)
        (bn1): BatchNorm2d(256, eps=1e-05, momentum=0.1, affine=True)
        (conv2): Conv2d(256, 256, kernel_size=(3, 3), stride=(1, 1), padding=(1, 1), bias=False)
        (bn2): BatchNorm2d(256, eps=1e-05, momentum=0.1, affine=True)
        (conv3): Conv2d(256, 1024, kernel_size=(1, 1), stride=(1, 1), bias=False)
        (bn3): BatchNorm2d(1024, eps=1e-05, momentum=0.1, affine=True)
        (relu): ReLU(inplace)
      )
      (23): Bottleneck(
        (conv1): Conv2d(1024, 256, kernel_size=(1, 1), stride=(1, 1), bias=False)
        (bn1): BatchNorm2d(256, eps=1e-05, momentum=0.1, affine=True)
        (conv2): Conv2d(256, 256, kernel_size=(3, 3), stride=(1, 1), padding=(1, 1), bias=False)
        (bn2): BatchNorm2d(256, eps=1e-05, momentum=0.1, affine=True)
        (conv3): Conv2d(256, 1024, kernel_size=(1, 1), stride=(1, 1), bias=False)
        (bn3): BatchNorm2d(1024, eps=1e-05, momentum=0.1, affine=True)
        (relu): ReLU(inplace)
      )
      (24): Bottleneck(
        (conv1): Conv2d(1024, 256, kernel_size=(1, 1), stride=(1, 1), bias=False)
        (bn1): BatchNorm2d(256, eps=1e-05, momentum=0.1, affine=True)
        (conv2): Conv2d(256, 256, kernel_size=(3, 3), stride=(1, 1), padding=(1, 1), bias=False)
        (bn2): BatchNorm2d(256, eps=1e-05, momentum=0.1, affine=True)
        (conv3): Conv2d(256, 1024, kernel_size=(1, 1), stride=(1, 1), bias=False)
        (bn3): BatchNorm2d(1024, eps=1e-05, momentum=0.1, affine=True)
        (relu): ReLU(inplace)
      )
      (25): Bottleneck(
        (conv1): Conv2d(1024, 256, kernel_size=(1, 1), stride=(1, 1), bias=False)
        (bn1): BatchNorm2d(256, eps=1e-05, momentum=0.1, affine=True)
        (conv2): Conv2d(256, 256, kernel_size=(3, 3), stride=(1, 1), padding=(1, 1), bias=False)
        (bn2): BatchNorm2d(256, eps=1e-05, momentum=0.1, affine=True)
        (conv3): Conv2d(256, 1024, kernel_size=(1, 1), stride=(1, 1), bias=False)
        (bn3): BatchNorm2d(1024, eps=1e-05, momentum=0.1, affine=True)
        (relu): ReLU(inplace)
      )
      (26): Bottleneck(
        (conv1): Conv2d(1024, 256, kernel_size=(1, 1), stride=(1, 1), bias=False)
        (bn1): BatchNorm2d(256, eps=1e-05, momentum=0.1, affine=True)
        (conv2): Conv2d(256, 256, kernel_size=(3, 3), stride=(1, 1), padding=(1, 1), bias=False)
        (bn2): BatchNorm2d(256, eps=1e-05, momentum=0.1, affine=True)
        (conv3): Conv2d(256, 1024, kernel_size=(1, 1), stride=(1, 1), bias=False)
        (bn3): BatchNorm2d(1024, eps=1e-05, momentum=0.1, affine=True)
        (relu): ReLU(inplace)
      )
      (27): Bottleneck(
        (conv1): Conv2d(1024, 256, kernel_size=(1, 1), stride=(1, 1), bias=False)
        (bn1): BatchNorm2d(256, eps=1e-05, momentum=0.1, affine=True)
        (conv2): Conv2d(256, 256, kernel_size=(3, 3), stride=(1, 1), padding=(1, 1), bias=False)
        (bn2): BatchNorm2d(256, eps=1e-05, momentum=0.1, affine=True)
        (conv3): Conv2d(256, 1024, kernel_size=(1, 1), stride=(1, 1), bias=False)
        (bn3): BatchNorm2d(1024, eps=1e-05, momentum=0.1, affine=True)
        (relu): ReLU(inplace)
      )
      (28): Bottleneck(
        (conv1): Conv2d(1024, 256, kernel_size=(1, 1), stride=(1, 1), bias=False)
        (bn1): BatchNorm2d(256, eps=1e-05, momentum=0.1, affine=True)
        (conv2): Conv2d(256, 256, kernel_size=(3, 3), stride=(1, 1), padding=(1, 1), bias=False)
        (bn2): BatchNorm2d(256, eps=1e-05, momentum=0.1, affine=True)
        (conv3): Conv2d(256, 1024, kernel_size=(1, 1), stride=(1, 1), bias=False)
        (bn3): BatchNorm2d(1024, eps=1e-05, momentum=0.1, affine=True)
        (relu): ReLU(inplace)
      )
      (29): Bottleneck(
        (conv1): Conv2d(1024, 256, kernel_size=(1, 1), stride=(1, 1), bias=False)
        (bn1): BatchNorm2d(256, eps=1e-05, momentum=0.1, affine=True)
        (conv2): Conv2d(256, 256, kernel_size=(3, 3), stride=(1, 1), padding=(1, 1), bias=False)
        (bn2): BatchNorm2d(256, eps=1e-05, momentum=0.1, affine=True)
        (conv3): Conv2d(256, 1024, kernel_size=(1, 1), stride=(1, 1), bias=False)
        (bn3): BatchNorm2d(1024, eps=1e-05, momentum=0.1, affine=True)
        (relu): ReLU(inplace)
      )
      (30): Bottleneck(
        (conv1): Conv2d(1024, 256, kernel_size=(1, 1), stride=(1, 1), bias=False)
        (bn1): BatchNorm2d(256, eps=1e-05, momentum=0.1, affine=True)
        (conv2): Conv2d(256, 256, kernel_size=(3, 3), stride=(1, 1), padding=(1, 1), bias=False)
        (bn2): BatchNorm2d(256, eps=1e-05, momentum=0.1, affine=True)
        (conv3): Conv2d(256, 1024, kernel_size=(1, 1), stride=(1, 1), bias=False)
        (bn3): BatchNorm2d(1024, eps=1e-05, momentum=0.1, affine=True)
        (relu): ReLU(inplace)
      )
      (31): Bottleneck(
        (conv1): Conv2d(1024, 256, kernel_size=(1, 1), stride=(1, 1), bias=False)
        (bn1): BatchNorm2d(256, eps=1e-05, momentum=0.1, affine=True)
        (conv2): Conv2d(256, 256, kernel_size=(3, 3), stride=(1, 1), padding=(1, 1), bias=False)
        (bn2): BatchNorm2d(256, eps=1e-05, momentum=0.1, affine=True)
        (conv3): Conv2d(256, 1024, kernel_size=(1, 1), stride=(1, 1), bias=False)
        (bn3): BatchNorm2d(1024, eps=1e-05, momentum=0.1, affine=True)
        (relu): ReLU(inplace)
      )
      (32): Bottleneck(
        (conv1): Conv2d(1024, 256, kernel_size=(1, 1), stride=(1, 1), bias=False)
        (bn1): BatchNorm2d(256, eps=1e-05, momentum=0.1, affine=True)
        (conv2): Conv2d(256, 256, kernel_size=(3, 3), stride=(1, 1), padding=(1, 1), bias=False)
        (bn2): BatchNorm2d(256, eps=1e-05, momentum=0.1, affine=True)
        (conv3): Conv2d(256, 1024, kernel_size=(1, 1), stride=(1, 1), bias=False)
        (bn3): BatchNorm2d(1024, eps=1e-05, momentum=0.1, affine=True)
        (relu): ReLU(inplace)
      )
      (33): Bottleneck(
        (conv1): Conv2d(1024, 256, kernel_size=(1, 1), stride=(1, 1), bias=False)
        (bn1): BatchNorm2d(256, eps=1e-05, momentum=0.1, affine=True)
        (conv2): Conv2d(256, 256, kernel_size=(3, 3), stride=(1, 1), padding=(1, 1), bias=False)
        (bn2): BatchNorm2d(256, eps=1e-05, momentum=0.1, affine=True)
        (conv3): Conv2d(256, 1024, kernel_size=(1, 1), stride=(1, 1), bias=False)
        (bn3): BatchNorm2d(1024, eps=1e-05, momentum=0.1, affine=True)
        (relu): ReLU(inplace)
      )
      (34): Bottleneck(
        (conv1): Conv2d(1024, 256, kernel_size=(1, 1), stride=(1, 1), bias=False)
        (bn1): BatchNorm2d(256, eps=1e-05, momentum=0.1, affine=True)
        (conv2): Conv2d(256, 256, kernel_size=(3, 3), stride=(1, 1), padding=(1, 1), bias=False)
        (bn2): BatchNorm2d(256, eps=1e-05, momentum=0.1, affine=True)
        (conv3): Conv2d(256, 1024, kernel_size=(1, 1), stride=(1, 1), bias=False)
        (bn3): BatchNorm2d(1024, eps=1e-05, momentum=0.1, affine=True)
        (relu): ReLU(inplace)
      )
      (35): Bottleneck(
        (conv1): Conv2d(1024, 256, kernel_size=(1, 1), stride=(1, 1), bias=False)
        (bn1): BatchNorm2d(256, eps=1e-05, momentum=0.1, affine=True)
        (conv2): Conv2d(256, 256, kernel_size=(3, 3), stride=(1, 1), padding=(1, 1), bias=False)
        (bn2): BatchNorm2d(256, eps=1e-05, momentum=0.1, affine=True)
        (conv3): Conv2d(256, 1024, kernel_size=(1, 1), stride=(1, 1), bias=False)
        (bn3): BatchNorm2d(1024, eps=1e-05, momentum=0.1, affine=True)
        (relu): ReLU(inplace)
      )
    )
    (reslayer4): Sequential(
      (0): Bottleneck(
        (conv1): Conv2d(1024, 512, kernel_size=(1, 1), stride=(1, 1), bias=False)
        (bn1): BatchNorm2d(512, eps=1e-05, momentum=0.1, affine=True)
        (conv2): Conv2d(512, 512, kernel_size=(3, 3), stride=(2, 2), padding=(1, 1), bias=False)
        (bn2): BatchNorm2d(512, eps=1e-05, momentum=0.1, affine=True)
        (conv3): Conv2d(512, 2048, kernel_size=(1, 1), stride=(1, 1), bias=False)
        (bn3): BatchNorm2d(2048, eps=1e-05, momentum=0.1, affine=True)
        (relu): ReLU(inplace)
        (downsample): Sequential(
          (0): Conv2d(1024, 2048, kernel_size=(1, 1), stride=(2, 2), bias=False)
          (1): BatchNorm2d(2048, eps=1e-05, momentum=0.1, affine=True)
        )
      )
      (1): Bottleneck(
        (conv1): Conv2d(2048, 512, kernel_size=(1, 1), stride=(1, 1), bias=False)
        (bn1): BatchNorm2d(512, eps=1e-05, momentum=0.1, affine=True)
        (conv2): Conv2d(512, 512, kernel_size=(3, 3), stride=(1, 1), padding=(1, 1), bias=False)
        (bn2): BatchNorm2d(512, eps=1e-05, momentum=0.1, affine=True)
        (conv3): Conv2d(512, 2048, kernel_size=(1, 1), stride=(1, 1), bias=False)
        (bn3): BatchNorm2d(2048, eps=1e-05, momentum=0.1, affine=True)
        (relu): ReLU(inplace)
      )
      (2): Bottleneck(
        (conv1): Conv2d(2048, 512, kernel_size=(1, 1), stride=(1, 1), bias=False)
        (bn1): BatchNorm2d(512, eps=1e-05, momentum=0.1, affine=True)
        (conv2): Conv2d(512, 512, kernel_size=(3, 3), stride=(1, 1), padding=(1, 1), bias=False)
        (bn2): BatchNorm2d(512, eps=1e-05, momentum=0.1, affine=True)
        (conv3): Conv2d(512, 2048, kernel_size=(1, 1), stride=(1, 1), bias=False)
        (bn3): BatchNorm2d(2048, eps=1e-05, momentum=0.1, affine=True)
        (relu): ReLU(inplace)
      )
    )
    (densblock1_1): _DenseBlock(
      (denselayer1): _DenseLayer(
        (norm.1): BatchNorm2d(128, eps=1e-05, momentum=0.1, affine=True)
        (relu.1): ReLU(inplace)
        (conv.1): Conv2d(128, 128, kernel_size=(1, 1), stride=(1, 1), bias=False)
        (norm.2): BatchNorm2d(128, eps=1e-05, momentum=0.1, affine=True)
        (relu.2): ReLU(inplace)
        (conv.2): Conv2d(128, 32, kernel_size=(3, 3), stride=(1, 1), padding=(1, 1), bias=False)
      )
      (denselayer2): _DenseLayer(
        (norm.1): BatchNorm2d(160, eps=1e-05, momentum=0.1, affine=True)
        (relu.1): ReLU(inplace)
        (conv.1): Conv2d(160, 128, kernel_size=(1, 1), stride=(1, 1), bias=False)
        (norm.2): BatchNorm2d(128, eps=1e-05, momentum=0.1, affine=True)
        (relu.2): ReLU(inplace)
        (conv.2): Conv2d(128, 32, kernel_size=(3, 3), stride=(1, 1), padding=(1, 1), bias=False)
      )
      (denselayer3): _DenseLayer(
        (norm.1): BatchNorm2d(192, eps=1e-05, momentum=0.1, affine=True)
        (relu.1): ReLU(inplace)
        (conv.1): Conv2d(192, 128, kernel_size=(1, 1), stride=(1, 1), bias=False)
        (norm.2): BatchNorm2d(128, eps=1e-05, momentum=0.1, affine=True)
        (relu.2): ReLU(inplace)
        (conv.2): Conv2d(128, 32, kernel_size=(3, 3), stride=(1, 1), padding=(1, 1), bias=False)
      )
      (denselayer4): _DenseLayer(
        (norm.1): BatchNorm2d(224, eps=1e-05, momentum=0.1, affine=True)
        (relu.1): ReLU(inplace)
        (conv.1): Conv2d(224, 128, kernel_size=(1, 1), stride=(1, 1), bias=False)
        (norm.2): BatchNorm2d(128, eps=1e-05, momentum=0.1, affine=True)
        (relu.2): ReLU(inplace)
        (conv.2): Conv2d(128, 32, kernel_size=(3, 3), stride=(1, 1), padding=(1, 1), bias=False)
      )
      (denselayer5): _DenseLayer(
        (norm.1): BatchNorm2d(256, eps=1e-05, momentum=0.1, affine=True)
        (relu.1): ReLU(inplace)
        (conv.1): Conv2d(256, 128, kernel_size=(1, 1), stride=(1, 1), bias=False)
        (norm.2): BatchNorm2d(128, eps=1e-05, momentum=0.1, affine=True)
        (relu.2): ReLU(inplace)
        (conv.2): Conv2d(128, 32, kernel_size=(3, 3), stride=(1, 1), padding=(1, 1), bias=False)
      )
      (denselayer6): _DenseLayer(
        (norm.1): BatchNorm2d(288, eps=1e-05, momentum=0.1, affine=True)
        (relu.1): ReLU(inplace)
        (conv.1): Conv2d(288, 128, kernel_size=(1, 1), stride=(1, 1), bias=False)
        (norm.2): BatchNorm2d(128, eps=1e-05, momentum=0.1, affine=True)
        (relu.2): ReLU(inplace)
        (conv.2): Conv2d(128, 32, kernel_size=(3, 3), stride=(1, 1), padding=(1, 1), bias=False)
      )
      (denselayer7): _DenseLayer(
        (norm.1): BatchNorm2d(320, eps=1e-05, momentum=0.1, affine=True)
        (relu.1): ReLU(inplace)
        (conv.1): Conv2d(320, 128, kernel_size=(1, 1), stride=(1, 1), bias=False)
        (norm.2): BatchNorm2d(128, eps=1e-05, momentum=0.1, affine=True)
        (relu.2): ReLU(inplace)
        (conv.2): Conv2d(128, 32, kernel_size=(3, 3), stride=(1, 1), padding=(1, 1), bias=False)
      )
      (denselayer8): _DenseLayer(
        (norm.1): BatchNorm2d(352, eps=1e-05, momentum=0.1, affine=True)
        (relu.1): ReLU(inplace)
        (conv.1): Conv2d(352, 128, kernel_size=(1, 1), stride=(1, 1), bias=False)
        (norm.2): BatchNorm2d(128, eps=1e-05, momentum=0.1, affine=True)
        (relu.2): ReLU(inplace)
        (conv.2): Conv2d(128, 32, kernel_size=(3, 3), stride=(1, 1), padding=(1, 1), bias=False)
      )
      (denselayer9): _DenseLayer(
        (norm.1): BatchNorm2d(384, eps=1e-05, momentum=0.1, affine=True)
        (relu.1): ReLU(inplace)
        (conv.1): Conv2d(384, 128, kernel_size=(1, 1), stride=(1, 1), bias=False)
        (norm.2): BatchNorm2d(128, eps=1e-05, momentum=0.1, affine=True)
        (relu.2): ReLU(inplace)
        (conv.2): Conv2d(128, 32, kernel_size=(3, 3), stride=(1, 1), padding=(1, 1), bias=False)
      )
      (denselayer10): _DenseLayer(
        (norm.1): BatchNorm2d(416, eps=1e-05, momentum=0.1, affine=True)
        (relu.1): ReLU(inplace)
        (conv.1): Conv2d(416, 128, kernel_size=(1, 1), stride=(1, 1), bias=False)
        (norm.2): BatchNorm2d(128, eps=1e-05, momentum=0.1, affine=True)
        (relu.2): ReLU(inplace)
        (conv.2): Conv2d(128, 32, kernel_size=(3, 3), stride=(1, 1), padding=(1, 1), bias=False)
      )
      (denselayer11): _DenseLayer(
        (norm.1): BatchNorm2d(448, eps=1e-05, momentum=0.1, affine=True)
        (relu.1): ReLU(inplace)
        (conv.1): Conv2d(448, 128, kernel_size=(1, 1), stride=(1, 1), bias=False)
        (norm.2): BatchNorm2d(128, eps=1e-05, momentum=0.1, affine=True)
        (relu.2): ReLU(inplace)
        (conv.2): Conv2d(128, 32, kernel_size=(3, 3), stride=(1, 1), padding=(1, 1), bias=False)
      )
      (denselayer12): _DenseLayer(
        (norm.1): BatchNorm2d(480, eps=1e-05, momentum=0.1, affine=True)
        (relu.1): ReLU(inplace)
        (conv.1): Conv2d(480, 128, kernel_size=(1, 1), stride=(1, 1), bias=False)
        (norm.2): BatchNorm2d(128, eps=1e-05, momentum=0.1, affine=True)
        (relu.2): ReLU(inplace)
        (conv.2): Conv2d(128, 32, kernel_size=(3, 3), stride=(1, 1), padding=(1, 1), bias=False)
      )
    )
    (densblock1_2): _DenseBlock(
      (denselayer1): _DenseLayer(
        (norm.1): BatchNorm2d(256, eps=1e-05, momentum=0.1, affine=True)
        (relu.1): ReLU(inplace)
        (conv.1): Conv2d(256, 128, kernel_size=(1, 1), stride=(1, 1), bias=False)
        (norm.2): BatchNorm2d(128, eps=1e-05, momentum=0.1, affine=True)
        (relu.2): ReLU(inplace)
        (conv.2): Conv2d(128, 32, kernel_size=(3, 3), stride=(1, 1), padding=(1, 1), bias=False)
      )
      (denselayer2): _DenseLayer(
        (norm.1): BatchNorm2d(288, eps=1e-05, momentum=0.1, affine=True)
        (relu.1): ReLU(inplace)
        (conv.1): Conv2d(288, 128, kernel_size=(1, 1), stride=(1, 1), bias=False)
        (norm.2): BatchNorm2d(128, eps=1e-05, momentum=0.1, affine=True)
        (relu.2): ReLU(inplace)
        (conv.2): Conv2d(128, 32, kernel_size=(3, 3), stride=(1, 1), padding=(1, 1), bias=False)
      )
      (denselayer3): _DenseLayer(
        (norm.1): BatchNorm2d(320, eps=1e-05, momentum=0.1, affine=True)
        (relu.1): ReLU(inplace)
        (conv.1): Conv2d(320, 128, kernel_size=(1, 1), stride=(1, 1), bias=False)
        (norm.2): BatchNorm2d(128, eps=1e-05, momentum=0.1, affine=True)
        (relu.2): ReLU(inplace)
        (conv.2): Conv2d(128, 32, kernel_size=(3, 3), stride=(1, 1), padding=(1, 1), bias=False)
      )
      (denselayer4): _DenseLayer(
        (norm.1): BatchNorm2d(352, eps=1e-05, momentum=0.1, affine=True)
        (relu.1): ReLU(inplace)
        (conv.1): Conv2d(352, 128, kernel_size=(1, 1), stride=(1, 1), bias=False)
        (norm.2): BatchNorm2d(128, eps=1e-05, momentum=0.1, affine=True)
        (relu.2): ReLU(inplace)
        (conv.2): Conv2d(128, 32, kernel_size=(3, 3), stride=(1, 1), padding=(1, 1), bias=False)
      )
      (denselayer5): _DenseLayer(
        (norm.1): BatchNorm2d(384, eps=1e-05, momentum=0.1, affine=True)
        (relu.1): ReLU(inplace)
        (conv.1): Conv2d(384, 128, kernel_size=(1, 1), stride=(1, 1), bias=False)
        (norm.2): BatchNorm2d(128, eps=1e-05, momentum=0.1, affine=True)
        (relu.2): ReLU(inplace)
        (conv.2): Conv2d(128, 32, kernel_size=(3, 3), stride=(1, 1), padding=(1, 1), bias=False)
      )
      (denselayer6): _DenseLayer(
        (norm.1): BatchNorm2d(416, eps=1e-05, momentum=0.1, affine=True)
        (relu.1): ReLU(inplace)
        (conv.1): Conv2d(416, 128, kernel_size=(1, 1), stride=(1, 1), bias=False)
        (norm.2): BatchNorm2d(128, eps=1e-05, momentum=0.1, affine=True)
        (relu.2): ReLU(inplace)
        (conv.2): Conv2d(128, 32, kernel_size=(3, 3), stride=(1, 1), padding=(1, 1), bias=False)
      )
      (denselayer7): _DenseLayer(
        (norm.1): BatchNorm2d(448, eps=1e-05, momentum=0.1, affine=True)
        (relu.1): ReLU(inplace)
        (conv.1): Conv2d(448, 128, kernel_size=(1, 1), stride=(1, 1), bias=False)
        (norm.2): BatchNorm2d(128, eps=1e-05, momentum=0.1, affine=True)
        (relu.2): ReLU(inplace)
        (conv.2): Conv2d(128, 32, kernel_size=(3, 3), stride=(1, 1), padding=(1, 1), bias=False)
      )
      (denselayer8): _DenseLayer(
        (norm.1): BatchNorm2d(480, eps=1e-05, momentum=0.1, affine=True)
        (relu.1): ReLU(inplace)
        (conv.1): Conv2d(480, 128, kernel_size=(1, 1), stride=(1, 1), bias=False)
        (norm.2): BatchNorm2d(128, eps=1e-05, momentum=0.1, affine=True)
        (relu.2): ReLU(inplace)
        (conv.2): Conv2d(128, 32, kernel_size=(3, 3), stride=(1, 1), padding=(1, 1), bias=False)
      )
      (denselayer9): _DenseLayer(
        (norm.1): BatchNorm2d(512, eps=1e-05, momentum=0.1, affine=True)
        (relu.1): ReLU(inplace)
        (conv.1): Conv2d(512, 128, kernel_size=(1, 1), stride=(1, 1), bias=False)
        (norm.2): BatchNorm2d(128, eps=1e-05, momentum=0.1, affine=True)
        (relu.2): ReLU(inplace)
        (conv.2): Conv2d(128, 32, kernel_size=(3, 3), stride=(1, 1), padding=(1, 1), bias=False)
      )
      (denselayer10): _DenseLayer(
        (norm.1): BatchNorm2d(544, eps=1e-05, momentum=0.1, affine=True)
        (relu.1): ReLU(inplace)
        (conv.1): Conv2d(544, 128, kernel_size=(1, 1), stride=(1, 1), bias=False)
        (norm.2): BatchNorm2d(128, eps=1e-05, momentum=0.1, affine=True)
        (relu.2): ReLU(inplace)
        (conv.2): Conv2d(128, 32, kernel_size=(3, 3), stride=(1, 1), padding=(1, 1), bias=False)
      )
      (denselayer11): _DenseLayer(
        (norm.1): BatchNorm2d(576, eps=1e-05, momentum=0.1, affine=True)
        (relu.1): ReLU(inplace)
        (conv.1): Conv2d(576, 128, kernel_size=(1, 1), stride=(1, 1), bias=False)
        (norm.2): BatchNorm2d(128, eps=1e-05, momentum=0.1, affine=True)
        (relu.2): ReLU(inplace)
        (conv.2): Conv2d(128, 32, kernel_size=(3, 3), stride=(1, 1), padding=(1, 1), bias=False)
      )
      (denselayer12): _DenseLayer(
        (norm.1): BatchNorm2d(608, eps=1e-05, momentum=0.1, affine=True)
        (relu.1): ReLU(inplace)
        (conv.1): Conv2d(608, 128, kernel_size=(1, 1), stride=(1, 1), bias=False)
        (norm.2): BatchNorm2d(128, eps=1e-05, momentum=0.1, affine=True)
        (relu.2): ReLU(inplace)
        (conv.2): Conv2d(128, 32, kernel_size=(3, 3), stride=(1, 1), padding=(1, 1), bias=False)
      )
      (denselayer13): _DenseLayer(
        (norm.1): BatchNorm2d(640, eps=1e-05, momentum=0.1, affine=True)
        (relu.1): ReLU(inplace)
        (conv.1): Conv2d(640, 128, kernel_size=(1, 1), stride=(1, 1), bias=False)
        (norm.2): BatchNorm2d(128, eps=1e-05, momentum=0.1, affine=True)
        (relu.2): ReLU(inplace)
        (conv.2): Conv2d(128, 32, kernel_size=(3, 3), stride=(1, 1), padding=(1, 1), bias=False)
      )
      (denselayer14): _DenseLayer(
        (norm.1): BatchNorm2d(672, eps=1e-05, momentum=0.1, affine=True)
        (relu.1): ReLU(inplace)
        (conv.1): Conv2d(672, 128, kernel_size=(1, 1), stride=(1, 1), bias=False)
        (norm.2): BatchNorm2d(128, eps=1e-05, momentum=0.1, affine=True)
        (relu.2): ReLU(inplace)
        (conv.2): Conv2d(128, 32, kernel_size=(3, 3), stride=(1, 1), padding=(1, 1), bias=False)
      )
      (denselayer15): _DenseLayer(
        (norm.1): BatchNorm2d(704, eps=1e-05, momentum=0.1, affine=True)
        (relu.1): ReLU(inplace)
        (conv.1): Conv2d(704, 128, kernel_size=(1, 1), stride=(1, 1), bias=False)
        (norm.2): BatchNorm2d(128, eps=1e-05, momentum=0.1, affine=True)
        (relu.2): ReLU(inplace)
        (conv.2): Conv2d(128, 32, kernel_size=(3, 3), stride=(1, 1), padding=(1, 1), bias=False)
      )
      (denselayer16): _DenseLayer(
        (norm.1): BatchNorm2d(736, eps=1e-05, momentum=0.1, affine=True)
        (relu.1): ReLU(inplace)
        (conv.1): Conv2d(736, 128, kernel_size=(1, 1), stride=(1, 1), bias=False)
        (norm.2): BatchNorm2d(128, eps=1e-05, momentum=0.1, affine=True)
        (relu.2): ReLU(inplace)
        (conv.2): Conv2d(128, 32, kernel_size=(3, 3), stride=(1, 1), padding=(1, 1), bias=False)
      )
      (denselayer17): _DenseLayer(
        (norm.1): BatchNorm2d(768, eps=1e-05, momentum=0.1, affine=True)
        (relu.1): ReLU(inplace)
        (conv.1): Conv2d(768, 128, kernel_size=(1, 1), stride=(1, 1), bias=False)
        (norm.2): BatchNorm2d(128, eps=1e-05, momentum=0.1, affine=True)
        (relu.2): ReLU(inplace)
        (conv.2): Conv2d(128, 32, kernel_size=(3, 3), stride=(1, 1), padding=(1, 1), bias=False)
      )
      (denselayer18): _DenseLayer(
        (norm.1): BatchNorm2d(800, eps=1e-05, momentum=0.1, affine=True)
        (relu.1): ReLU(inplace)
        (conv.1): Conv2d(800, 128, kernel_size=(1, 1), stride=(1, 1), bias=False)
        (norm.2): BatchNorm2d(128, eps=1e-05, momentum=0.1, affine=True)
        (relu.2): ReLU(inplace)
        (conv.2): Conv2d(128, 32, kernel_size=(3, 3), stride=(1, 1), padding=(1, 1), bias=False)
      )
      (denselayer19): _DenseLayer(
        (norm.1): BatchNorm2d(832, eps=1e-05, momentum=0.1, affine=True)
        (relu.1): ReLU(inplace)
        (conv.1): Conv2d(832, 128, kernel_size=(1, 1), stride=(1, 1), bias=False)
        (norm.2): BatchNorm2d(128, eps=1e-05, momentum=0.1, affine=True)
        (relu.2): ReLU(inplace)
        (conv.2): Conv2d(128, 32, kernel_size=(3, 3), stride=(1, 1), padding=(1, 1), bias=False)
      )
      (denselayer20): _DenseLayer(
        (norm.1): BatchNorm2d(864, eps=1e-05, momentum=0.1, affine=True)
        (relu.1): ReLU(inplace)
        (conv.1): Conv2d(864, 128, kernel_size=(1, 1), stride=(1, 1), bias=False)
        (norm.2): BatchNorm2d(128, eps=1e-05, momentum=0.1, affine=True)
        (relu.2): ReLU(inplace)
        (conv.2): Conv2d(128, 32, kernel_size=(3, 3), stride=(1, 1), padding=(1, 1), bias=False)
      )
      (denselayer21): _DenseLayer(
        (norm.1): BatchNorm2d(896, eps=1e-05, momentum=0.1, affine=True)
        (relu.1): ReLU(inplace)
        (conv.1): Conv2d(896, 128, kernel_size=(1, 1), stride=(1, 1), bias=False)
        (norm.2): BatchNorm2d(128, eps=1e-05, momentum=0.1, affine=True)
        (relu.2): ReLU(inplace)
        (conv.2): Conv2d(128, 32, kernel_size=(3, 3), stride=(1, 1), padding=(1, 1), bias=False)
      )
      (denselayer22): _DenseLayer(
        (norm.1): BatchNorm2d(928, eps=1e-05, momentum=0.1, affine=True)
        (relu.1): ReLU(inplace)
        (conv.1): Conv2d(928, 128, kernel_size=(1, 1), stride=(1, 1), bias=False)
        (norm.2): BatchNorm2d(128, eps=1e-05, momentum=0.1, affine=True)
        (relu.2): ReLU(inplace)
        (conv.2): Conv2d(128, 32, kernel_size=(3, 3), stride=(1, 1), padding=(1, 1), bias=False)
      )
      (denselayer23): _DenseLayer(
        (norm.1): BatchNorm2d(960, eps=1e-05, momentum=0.1, affine=True)
        (relu.1): ReLU(inplace)
        (conv.1): Conv2d(960, 128, kernel_size=(1, 1), stride=(1, 1), bias=False)
        (norm.2): BatchNorm2d(128, eps=1e-05, momentum=0.1, affine=True)
        (relu.2): ReLU(inplace)
        (conv.2): Conv2d(128, 32, kernel_size=(3, 3), stride=(1, 1), padding=(1, 1), bias=False)
      )
      (denselayer24): _DenseLayer(
        (norm.1): BatchNorm2d(992, eps=1e-05, momentum=0.1, affine=True)
        (relu.1): ReLU(inplace)
        (conv.1): Conv2d(992, 128, kernel_size=(1, 1), stride=(1, 1), bias=False)
        (norm.2): BatchNorm2d(128, eps=1e-05, momentum=0.1, affine=True)
        (relu.2): ReLU(inplace)
        (conv.2): Conv2d(128, 32, kernel_size=(3, 3), stride=(1, 1), padding=(1, 1), bias=False)
      )
      (denselayer25): _DenseLayer(
        (norm.1): BatchNorm2d(1024, eps=1e-05, momentum=0.1, affine=True)
        (relu.1): ReLU(inplace)
        (conv.1): Conv2d(1024, 128, kernel_size=(1, 1), stride=(1, 1), bias=False)
        (norm.2): BatchNorm2d(128, eps=1e-05, momentum=0.1, affine=True)
        (relu.2): ReLU(inplace)
        (conv.2): Conv2d(128, 32, kernel_size=(3, 3), stride=(1, 1), padding=(1, 1), bias=False)
      )
      (denselayer26): _DenseLayer(
        (norm.1): BatchNorm2d(1056, eps=1e-05, momentum=0.1, affine=True)
        (relu.1): ReLU(inplace)
        (conv.1): Conv2d(1056, 128, kernel_size=(1, 1), stride=(1, 1), bias=False)
        (norm.2): BatchNorm2d(128, eps=1e-05, momentum=0.1, affine=True)
        (relu.2): ReLU(inplace)
        (conv.2): Conv2d(128, 32, kernel_size=(3, 3), stride=(1, 1), padding=(1, 1), bias=False)
      )
      (denselayer27): _DenseLayer(
        (norm.1): BatchNorm2d(1088, eps=1e-05, momentum=0.1, affine=True)
        (relu.1): ReLU(inplace)
        (conv.1): Conv2d(1088, 128, kernel_size=(1, 1), stride=(1, 1), bias=False)
        (norm.2): BatchNorm2d(128, eps=1e-05, momentum=0.1, affine=True)
        (relu.2): ReLU(inplace)
        (conv.2): Conv2d(128, 32, kernel_size=(3, 3), stride=(1, 1), padding=(1, 1), bias=False)
      )
      (denselayer28): _DenseLayer(
        (norm.1): BatchNorm2d(1120, eps=1e-05, momentum=0.1, affine=True)
        (relu.1): ReLU(inplace)
        (conv.1): Conv2d(1120, 128, kernel_size=(1, 1), stride=(1, 1), bias=False)
        (norm.2): BatchNorm2d(128, eps=1e-05, momentum=0.1, affine=True)
        (relu.2): ReLU(inplace)
        (conv.2): Conv2d(128, 32, kernel_size=(3, 3), stride=(1, 1), padding=(1, 1), bias=False)
      )
      (denselayer29): _DenseLayer(
        (norm.1): BatchNorm2d(1152, eps=1e-05, momentum=0.1, affine=True)
        (relu.1): ReLU(inplace)
        (conv.1): Conv2d(1152, 128, kernel_size=(1, 1), stride=(1, 1), bias=False)
        (norm.2): BatchNorm2d(128, eps=1e-05, momentum=0.1, affine=True)
        (relu.2): ReLU(inplace)
        (conv.2): Conv2d(128, 32, kernel_size=(3, 3), stride=(1, 1), padding=(1, 1), bias=False)
      )
      (denselayer30): _DenseLayer(
        (norm.1): BatchNorm2d(1184, eps=1e-05, momentum=0.1, affine=True)
        (relu.1): ReLU(inplace)
        (conv.1): Conv2d(1184, 128, kernel_size=(1, 1), stride=(1, 1), bias=False)
        (norm.2): BatchNorm2d(128, eps=1e-05, momentum=0.1, affine=True)
        (relu.2): ReLU(inplace)
        (conv.2): Conv2d(128, 32, kernel_size=(3, 3), stride=(1, 1), padding=(1, 1), bias=False)
      )
      (denselayer31): _DenseLayer(
        (norm.1): BatchNorm2d(1216, eps=1e-05, momentum=0.1, affine=True)
        (relu.1): ReLU(inplace)
        (conv.1): Conv2d(1216, 128, kernel_size=(1, 1), stride=(1, 1), bias=False)
        (norm.2): BatchNorm2d(128, eps=1e-05, momentum=0.1, affine=True)
        (relu.2): ReLU(inplace)
        (conv.2): Conv2d(128, 32, kernel_size=(3, 3), stride=(1, 1), padding=(1, 1), bias=False)
      )
      (denselayer32): _DenseLayer(
        (norm.1): BatchNorm2d(1248, eps=1e-05, momentum=0.1, affine=True)
        (relu.1): ReLU(inplace)
        (conv.1): Conv2d(1248, 128, kernel_size=(1, 1), stride=(1, 1), bias=False)
        (norm.2): BatchNorm2d(128, eps=1e-05, momentum=0.1, affine=True)
        (relu.2): ReLU(inplace)
        (conv.2): Conv2d(128, 32, kernel_size=(3, 3), stride=(1, 1), padding=(1, 1), bias=False)
      )
    )
    (densblock1_3): _DenseBlock(
      (denselayer1): _DenseLayer(
        (norm.1): BatchNorm2d(640, eps=1e-05, momentum=0.1, affine=True)
        (relu.1): ReLU(inplace)
        (conv.1): Conv2d(640, 128, kernel_size=(1, 1), stride=(1, 1), bias=False)
        (norm.2): BatchNorm2d(128, eps=1e-05, momentum=0.1, affine=True)
        (relu.2): ReLU(inplace)
        (conv.2): Conv2d(128, 32, kernel_size=(3, 3), stride=(1, 1), padding=(1, 1), bias=False)
      )
      (denselayer2): _DenseLayer(
        (norm.1): BatchNorm2d(672, eps=1e-05, momentum=0.1, affine=True)
        (relu.1): ReLU(inplace)
        (conv.1): Conv2d(672, 128, kernel_size=(1, 1), stride=(1, 1), bias=False)
        (norm.2): BatchNorm2d(128, eps=1e-05, momentum=0.1, affine=True)
        (relu.2): ReLU(inplace)
        (conv.2): Conv2d(128, 32, kernel_size=(3, 3), stride=(1, 1), padding=(1, 1), bias=False)
      )
      (denselayer3): _DenseLayer(
        (norm.1): BatchNorm2d(704, eps=1e-05, momentum=0.1, affine=True)
        (relu.1): ReLU(inplace)
        (conv.1): Conv2d(704, 128, kernel_size=(1, 1), stride=(1, 1), bias=False)
        (norm.2): BatchNorm2d(128, eps=1e-05, momentum=0.1, affine=True)
        (relu.2): ReLU(inplace)
        (conv.2): Conv2d(128, 32, kernel_size=(3, 3), stride=(1, 1), padding=(1, 1), bias=False)
      )
      (denselayer4): _DenseLayer(
        (norm.1): BatchNorm2d(736, eps=1e-05, momentum=0.1, affine=True)
        (relu.1): ReLU(inplace)
        (conv.1): Conv2d(736, 128, kernel_size=(1, 1), stride=(1, 1), bias=False)
        (norm.2): BatchNorm2d(128, eps=1e-05, momentum=0.1, affine=True)
        (relu.2): ReLU(inplace)
        (conv.2): Conv2d(128, 32, kernel_size=(3, 3), stride=(1, 1), padding=(1, 1), bias=False)
      )
      (denselayer5): _DenseLayer(
        (norm.1): BatchNorm2d(768, eps=1e-05, momentum=0.1, affine=True)
        (relu.1): ReLU(inplace)
        (conv.1): Conv2d(768, 128, kernel_size=(1, 1), stride=(1, 1), bias=False)
        (norm.2): BatchNorm2d(128, eps=1e-05, momentum=0.1, affine=True)
        (relu.2): ReLU(inplace)
        (conv.2): Conv2d(128, 32, kernel_size=(3, 3), stride=(1, 1), padding=(1, 1), bias=False)
      )
      (denselayer6): _DenseLayer(
        (norm.1): BatchNorm2d(800, eps=1e-05, momentum=0.1, affine=True)
        (relu.1): ReLU(inplace)
        (conv.1): Conv2d(800, 128, kernel_size=(1, 1), stride=(1, 1), bias=False)
        (norm.2): BatchNorm2d(128, eps=1e-05, momentum=0.1, affine=True)
        (relu.2): ReLU(inplace)
        (conv.2): Conv2d(128, 32, kernel_size=(3, 3), stride=(1, 1), padding=(1, 1), bias=False)
      )
      (denselayer7): _DenseLayer(
        (norm.1): BatchNorm2d(832, eps=1e-05, momentum=0.1, affine=True)
        (relu.1): ReLU(inplace)
        (conv.1): Conv2d(832, 128, kernel_size=(1, 1), stride=(1, 1), bias=False)
        (norm.2): BatchNorm2d(128, eps=1e-05, momentum=0.1, affine=True)
        (relu.2): ReLU(inplace)
        (conv.2): Conv2d(128, 32, kernel_size=(3, 3), stride=(1, 1), padding=(1, 1), bias=False)
      )
      (denselayer8): _DenseLayer(
        (norm.1): BatchNorm2d(864, eps=1e-05, momentum=0.1, affine=True)
        (relu.1): ReLU(inplace)
        (conv.1): Conv2d(864, 128, kernel_size=(1, 1), stride=(1, 1), bias=False)
        (norm.2): BatchNorm2d(128, eps=1e-05, momentum=0.1, affine=True)
        (relu.2): ReLU(inplace)
        (conv.2): Conv2d(128, 32, kernel_size=(3, 3), stride=(1, 1), padding=(1, 1), bias=False)
      )
      (denselayer9): _DenseLayer(
        (norm.1): BatchNorm2d(896, eps=1e-05, momentum=0.1, affine=True)
        (relu.1): ReLU(inplace)
        (conv.1): Conv2d(896, 128, kernel_size=(1, 1), stride=(1, 1), bias=False)
        (norm.2): BatchNorm2d(128, eps=1e-05, momentum=0.1, affine=True)
        (relu.2): ReLU(inplace)
        (conv.2): Conv2d(128, 32, kernel_size=(3, 3), stride=(1, 1), padding=(1, 1), bias=False)
      )
      (denselayer10): _DenseLayer(
        (norm.1): BatchNorm2d(928, eps=1e-05, momentum=0.1, affine=True)
        (relu.1): ReLU(inplace)
        (conv.1): Conv2d(928, 128, kernel_size=(1, 1), stride=(1, 1), bias=False)
        (norm.2): BatchNorm2d(128, eps=1e-05, momentum=0.1, affine=True)
        (relu.2): ReLU(inplace)
        (conv.2): Conv2d(128, 32, kernel_size=(3, 3), stride=(1, 1), padding=(1, 1), bias=False)
      )
      (denselayer11): _DenseLayer(
        (norm.1): BatchNorm2d(960, eps=1e-05, momentum=0.1, affine=True)
        (relu.1): ReLU(inplace)
        (conv.1): Conv2d(960, 128, kernel_size=(1, 1), stride=(1, 1), bias=False)
        (norm.2): BatchNorm2d(128, eps=1e-05, momentum=0.1, affine=True)
        (relu.2): ReLU(inplace)
        (conv.2): Conv2d(128, 32, kernel_size=(3, 3), stride=(1, 1), padding=(1, 1), bias=False)
      )
      (denselayer12): _DenseLayer(
        (norm.1): BatchNorm2d(992, eps=1e-05, momentum=0.1, affine=True)
        (relu.1): ReLU(inplace)
        (conv.1): Conv2d(992, 128, kernel_size=(1, 1), stride=(1, 1), bias=False)
        (norm.2): BatchNorm2d(128, eps=1e-05, momentum=0.1, affine=True)
        (relu.2): ReLU(inplace)
        (conv.2): Conv2d(128, 32, kernel_size=(3, 3), stride=(1, 1), padding=(1, 1), bias=False)
      )
      (denselayer13): _DenseLayer(
        (norm.1): BatchNorm2d(1024, eps=1e-05, momentum=0.1, affine=True)
        (relu.1): ReLU(inplace)
        (conv.1): Conv2d(1024, 128, kernel_size=(1, 1), stride=(1, 1), bias=False)
        (norm.2): BatchNorm2d(128, eps=1e-05, momentum=0.1, affine=True)
        (relu.2): ReLU(inplace)
        (conv.2): Conv2d(128, 32, kernel_size=(3, 3), stride=(1, 1), padding=(1, 1), bias=False)
      )
      (denselayer14): _DenseLayer(
        (norm.1): BatchNorm2d(1056, eps=1e-05, momentum=0.1, affine=True)
        (relu.1): ReLU(inplace)
        (conv.1): Conv2d(1056, 128, kernel_size=(1, 1), stride=(1, 1), bias=False)
        (norm.2): BatchNorm2d(128, eps=1e-05, momentum=0.1, affine=True)
        (relu.2): ReLU(inplace)
        (conv.2): Conv2d(128, 32, kernel_size=(3, 3), stride=(1, 1), padding=(1, 1), bias=False)
      )
      (denselayer15): _DenseLayer(
        (norm.1): BatchNorm2d(1088, eps=1e-05, momentum=0.1, affine=True)
        (relu.1): ReLU(inplace)
        (conv.1): Conv2d(1088, 128, kernel_size=(1, 1), stride=(1, 1), bias=False)
        (norm.2): BatchNorm2d(128, eps=1e-05, momentum=0.1, affine=True)
        (relu.2): ReLU(inplace)
        (conv.2): Conv2d(128, 32, kernel_size=(3, 3), stride=(1, 1), padding=(1, 1), bias=False)
      )
      (denselayer16): _DenseLayer(
        (norm.1): BatchNorm2d(1120, eps=1e-05, momentum=0.1, affine=True)
        (relu.1): ReLU(inplace)
        (conv.1): Conv2d(1120, 128, kernel_size=(1, 1), stride=(1, 1), bias=False)
        (norm.2): BatchNorm2d(128, eps=1e-05, momentum=0.1, affine=True)
        (relu.2): ReLU(inplace)
        (conv.2): Conv2d(128, 32, kernel_size=(3, 3), stride=(1, 1), padding=(1, 1), bias=False)
      )
      (denselayer17): _DenseLayer(
        (norm.1): BatchNorm2d(1152, eps=1e-05, momentum=0.1, affine=True)
        (relu.1): ReLU(inplace)
        (conv.1): Conv2d(1152, 128, kernel_size=(1, 1), stride=(1, 1), bias=False)
        (norm.2): BatchNorm2d(128, eps=1e-05, momentum=0.1, affine=True)
        (relu.2): ReLU(inplace)
        (conv.2): Conv2d(128, 32, kernel_size=(3, 3), stride=(1, 1), padding=(1, 1), bias=False)
      )
      (denselayer18): _DenseLayer(
        (norm.1): BatchNorm2d(1184, eps=1e-05, momentum=0.1, affine=True)
        (relu.1): ReLU(inplace)
        (conv.1): Conv2d(1184, 128, kernel_size=(1, 1), stride=(1, 1), bias=False)
        (norm.2): BatchNorm2d(128, eps=1e-05, momentum=0.1, affine=True)
        (relu.2): ReLU(inplace)
        (conv.2): Conv2d(128, 32, kernel_size=(3, 3), stride=(1, 1), padding=(1, 1), bias=False)
      )
      (denselayer19): _DenseLayer(
        (norm.1): BatchNorm2d(1216, eps=1e-05, momentum=0.1, affine=True)
        (relu.1): ReLU(inplace)
        (conv.1): Conv2d(1216, 128, kernel_size=(1, 1), stride=(1, 1), bias=False)
        (norm.2): BatchNorm2d(128, eps=1e-05, momentum=0.1, affine=True)
        (relu.2): ReLU(inplace)
        (conv.2): Conv2d(128, 32, kernel_size=(3, 3), stride=(1, 1), padding=(1, 1), bias=False)
      )
      (denselayer20): _DenseLayer(
        (norm.1): BatchNorm2d(1248, eps=1e-05, momentum=0.1, affine=True)
        (relu.1): ReLU(inplace)
        (conv.1): Conv2d(1248, 128, kernel_size=(1, 1), stride=(1, 1), bias=False)
        (norm.2): BatchNorm2d(128, eps=1e-05, momentum=0.1, affine=True)
        (relu.2): ReLU(inplace)
        (conv.2): Conv2d(128, 32, kernel_size=(3, 3), stride=(1, 1), padding=(1, 1), bias=False)
      )
      (denselayer21): _DenseLayer(
        (norm.1): BatchNorm2d(1280, eps=1e-05, momentum=0.1, affine=True)
        (relu.1): ReLU(inplace)
        (conv.1): Conv2d(1280, 128, kernel_size=(1, 1), stride=(1, 1), bias=False)
        (norm.2): BatchNorm2d(128, eps=1e-05, momentum=0.1, affine=True)
        (relu.2): ReLU(inplace)
        (conv.2): Conv2d(128, 32, kernel_size=(3, 3), stride=(1, 1), padding=(1, 1), bias=False)
      )
      (denselayer22): _DenseLayer(
        (norm.1): BatchNorm2d(1312, eps=1e-05, momentum=0.1, affine=True)
        (relu.1): ReLU(inplace)
        (conv.1): Conv2d(1312, 128, kernel_size=(1, 1), stride=(1, 1), bias=False)
        (norm.2): BatchNorm2d(128, eps=1e-05, momentum=0.1, affine=True)
        (relu.2): ReLU(inplace)
        (conv.2): Conv2d(128, 32, kernel_size=(3, 3), stride=(1, 1), padding=(1, 1), bias=False)
      )
      (denselayer23): _DenseLayer(
        (norm.1): BatchNorm2d(1344, eps=1e-05, momentum=0.1, affine=True)
        (relu.1): ReLU(inplace)
        (conv.1): Conv2d(1344, 128, kernel_size=(1, 1), stride=(1, 1), bias=False)
        (norm.2): BatchNorm2d(128, eps=1e-05, momentum=0.1, affine=True)
        (relu.2): ReLU(inplace)
        (conv.2): Conv2d(128, 32, kernel_size=(3, 3), stride=(1, 1), padding=(1, 1), bias=False)
      )
      (denselayer24): _DenseLayer(
        (norm.1): BatchNorm2d(1376, eps=1e-05, momentum=0.1, affine=True)
        (relu.1): ReLU(inplace)
        (conv.1): Conv2d(1376, 128, kernel_size=(1, 1), stride=(1, 1), bias=False)
        (norm.2): BatchNorm2d(128, eps=1e-05, momentum=0.1, affine=True)
        (relu.2): ReLU(inplace)
        (conv.2): Conv2d(128, 32, kernel_size=(3, 3), stride=(1, 1), padding=(1, 1), bias=False)
      )
      (denselayer25): _DenseLayer(
        (norm.1): BatchNorm2d(1408, eps=1e-05, momentum=0.1, affine=True)
        (relu.1): ReLU(inplace)
        (conv.1): Conv2d(1408, 128, kernel_size=(1, 1), stride=(1, 1), bias=False)
        (norm.2): BatchNorm2d(128, eps=1e-05, momentum=0.1, affine=True)
        (relu.2): ReLU(inplace)
        (conv.2): Conv2d(128, 32, kernel_size=(3, 3), stride=(1, 1), padding=(1, 1), bias=False)
      )
      (denselayer26): _DenseLayer(
        (norm.1): BatchNorm2d(1440, eps=1e-05, momentum=0.1, affine=True)
        (relu.1): ReLU(inplace)
        (conv.1): Conv2d(1440, 128, kernel_size=(1, 1), stride=(1, 1), bias=False)
        (norm.2): BatchNorm2d(128, eps=1e-05, momentum=0.1, affine=True)
        (relu.2): ReLU(inplace)
        (conv.2): Conv2d(128, 32, kernel_size=(3, 3), stride=(1, 1), padding=(1, 1), bias=False)
      )
      (denselayer27): _DenseLayer(
        (norm.1): BatchNorm2d(1472, eps=1e-05, momentum=0.1, affine=True)
        (relu.1): ReLU(inplace)
        (conv.1): Conv2d(1472, 128, kernel_size=(1, 1), stride=(1, 1), bias=False)
        (norm.2): BatchNorm2d(128, eps=1e-05, momentum=0.1, affine=True)
        (relu.2): ReLU(inplace)
        (conv.2): Conv2d(128, 32, kernel_size=(3, 3), stride=(1, 1), padding=(1, 1), bias=False)
      )
      (denselayer28): _DenseLayer(
        (norm.1): BatchNorm2d(1504, eps=1e-05, momentum=0.1, affine=True)
        (relu.1): ReLU(inplace)
        (conv.1): Conv2d(1504, 128, kernel_size=(1, 1), stride=(1, 1), bias=False)
        (norm.2): BatchNorm2d(128, eps=1e-05, momentum=0.1, affine=True)
        (relu.2): ReLU(inplace)
        (conv.2): Conv2d(128, 32, kernel_size=(3, 3), stride=(1, 1), padding=(1, 1), bias=False)
      )
      (denselayer29): _DenseLayer(
        (norm.1): BatchNorm2d(1536, eps=1e-05, momentum=0.1, affine=True)
        (relu.1): ReLU(inplace)
        (conv.1): Conv2d(1536, 128, kernel_size=(1, 1), stride=(1, 1), bias=False)
        (norm.2): BatchNorm2d(128, eps=1e-05, momentum=0.1, affine=True)
        (relu.2): ReLU(inplace)
        (conv.2): Conv2d(128, 32, kernel_size=(3, 3), stride=(1, 1), padding=(1, 1), bias=False)
      )
      (denselayer30): _DenseLayer(
        (norm.1): BatchNorm2d(1568, eps=1e-05, momentum=0.1, affine=True)
        (relu.1): ReLU(inplace)
        (conv.1): Conv2d(1568, 128, kernel_size=(1, 1), stride=(1, 1), bias=False)
        (norm.2): BatchNorm2d(128, eps=1e-05, momentum=0.1, affine=True)
        (relu.2): ReLU(inplace)
        (conv.2): Conv2d(128, 32, kernel_size=(3, 3), stride=(1, 1), padding=(1, 1), bias=False)
      )
      (denselayer31): _DenseLayer(
        (norm.1): BatchNorm2d(1600, eps=1e-05, momentum=0.1, affine=True)
        (relu.1): ReLU(inplace)
        (conv.1): Conv2d(1600, 128, kernel_size=(1, 1), stride=(1, 1), bias=False)
        (norm.2): BatchNorm2d(128, eps=1e-05, momentum=0.1, affine=True)
        (relu.2): ReLU(inplace)
        (conv.2): Conv2d(128, 32, kernel_size=(3, 3), stride=(1, 1), padding=(1, 1), bias=False)
      )
      (denselayer32): _DenseLayer(
        (norm.1): BatchNorm2d(1632, eps=1e-05, momentum=0.1, affine=True)
        (relu.1): ReLU(inplace)
        (conv.1): Conv2d(1632, 128, kernel_size=(1, 1), stride=(1, 1), bias=False)
        (norm.2): BatchNorm2d(128, eps=1e-05, momentum=0.1, affine=True)
        (relu.2): ReLU(inplace)
        (conv.2): Conv2d(128, 32, kernel_size=(3, 3), stride=(1, 1), padding=(1, 1), bias=False)
      )
    )
    (densblock2_1): _DenseBlock(
      (denselayer1): _DenseLayer(
        (norm.1): BatchNorm2d(128, eps=1e-05, momentum=0.1, affine=True)
        (relu.1): ReLU(inplace)
        (conv.1): Conv2d(128, 128, kernel_size=(1, 1), stride=(1, 1), bias=False)
        (norm.2): BatchNorm2d(128, eps=1e-05, momentum=0.1, affine=True)
        (relu.2): ReLU(inplace)
        (conv.2): Conv2d(128, 32, kernel_size=(3, 3), stride=(1, 1), padding=(1, 1), bias=False)
      )
      (denselayer2): _DenseLayer(
        (norm.1): BatchNorm2d(160, eps=1e-05, momentum=0.1, affine=True)
        (relu.1): ReLU(inplace)
        (conv.1): Conv2d(160, 128, kernel_size=(1, 1), stride=(1, 1), bias=False)
        (norm.2): BatchNorm2d(128, eps=1e-05, momentum=0.1, affine=True)
        (relu.2): ReLU(inplace)
        (conv.2): Conv2d(128, 32, kernel_size=(3, 3), stride=(1, 1), padding=(1, 1), bias=False)
      )
      (denselayer3): _DenseLayer(
        (norm.1): BatchNorm2d(192, eps=1e-05, momentum=0.1, affine=True)
        (relu.1): ReLU(inplace)
        (conv.1): Conv2d(192, 128, kernel_size=(1, 1), stride=(1, 1), bias=False)
        (norm.2): BatchNorm2d(128, eps=1e-05, momentum=0.1, affine=True)
        (relu.2): ReLU(inplace)
        (conv.2): Conv2d(128, 32, kernel_size=(3, 3), stride=(1, 1), padding=(1, 1), bias=False)
      )
      (denselayer4): _DenseLayer(
        (norm.1): BatchNorm2d(224, eps=1e-05, momentum=0.1, affine=True)
        (relu.1): ReLU(inplace)
        (conv.1): Conv2d(224, 128, kernel_size=(1, 1), stride=(1, 1), bias=False)
        (norm.2): BatchNorm2d(128, eps=1e-05, momentum=0.1, affine=True)
        (relu.2): ReLU(inplace)
        (conv.2): Conv2d(128, 32, kernel_size=(3, 3), stride=(1, 1), padding=(1, 1), bias=False)
      )
      (denselayer5): _DenseLayer(
        (norm.1): BatchNorm2d(256, eps=1e-05, momentum=0.1, affine=True)
        (relu.1): ReLU(inplace)
        (conv.1): Conv2d(256, 128, kernel_size=(1, 1), stride=(1, 1), bias=False)
        (norm.2): BatchNorm2d(128, eps=1e-05, momentum=0.1, affine=True)
        (relu.2): ReLU(inplace)
        (conv.2): Conv2d(128, 32, kernel_size=(3, 3), stride=(1, 1), padding=(1, 1), bias=False)
      )
      (denselayer6): _DenseLayer(
        (norm.1): BatchNorm2d(288, eps=1e-05, momentum=0.1, affine=True)
        (relu.1): ReLU(inplace)
        (conv.1): Conv2d(288, 128, kernel_size=(1, 1), stride=(1, 1), bias=False)
        (norm.2): BatchNorm2d(128, eps=1e-05, momentum=0.1, affine=True)
        (relu.2): ReLU(inplace)
        (conv.2): Conv2d(128, 32, kernel_size=(3, 3), stride=(1, 1), padding=(1, 1), bias=False)
      )
      (denselayer7): _DenseLayer(
        (norm.1): BatchNorm2d(320, eps=1e-05, momentum=0.1, affine=True)
        (relu.1): ReLU(inplace)
        (conv.1): Conv2d(320, 128, kernel_size=(1, 1), stride=(1, 1), bias=False)
        (norm.2): BatchNorm2d(128, eps=1e-05, momentum=0.1, affine=True)
        (relu.2): ReLU(inplace)
        (conv.2): Conv2d(128, 32, kernel_size=(3, 3), stride=(1, 1), padding=(1, 1), bias=False)
      )
      (denselayer8): _DenseLayer(
        (norm.1): BatchNorm2d(352, eps=1e-05, momentum=0.1, affine=True)
        (relu.1): ReLU(inplace)
        (conv.1): Conv2d(352, 128, kernel_size=(1, 1), stride=(1, 1), bias=False)
        (norm.2): BatchNorm2d(128, eps=1e-05, momentum=0.1, affine=True)
        (relu.2): ReLU(inplace)
        (conv.2): Conv2d(128, 32, kernel_size=(3, 3), stride=(1, 1), padding=(1, 1), bias=False)
      )
      (denselayer9): _DenseLayer(
        (norm.1): BatchNorm2d(384, eps=1e-05, momentum=0.1, affine=True)
        (relu.1): ReLU(inplace)
        (conv.1): Conv2d(384, 128, kernel_size=(1, 1), stride=(1, 1), bias=False)
        (norm.2): BatchNorm2d(128, eps=1e-05, momentum=0.1, affine=True)
        (relu.2): ReLU(inplace)
        (conv.2): Conv2d(128, 32, kernel_size=(3, 3), stride=(1, 1), padding=(1, 1), bias=False)
      )
      (denselayer10): _DenseLayer(
        (norm.1): BatchNorm2d(416, eps=1e-05, momentum=0.1, affine=True)
        (relu.1): ReLU(inplace)
        (conv.1): Conv2d(416, 128, kernel_size=(1, 1), stride=(1, 1), bias=False)
        (norm.2): BatchNorm2d(128, eps=1e-05, momentum=0.1, affine=True)
        (relu.2): ReLU(inplace)
        (conv.2): Conv2d(128, 32, kernel_size=(3, 3), stride=(1, 1), padding=(1, 1), bias=False)
      )
      (denselayer11): _DenseLayer(
        (norm.1): BatchNorm2d(448, eps=1e-05, momentum=0.1, affine=True)
        (relu.1): ReLU(inplace)
        (conv.1): Conv2d(448, 128, kernel_size=(1, 1), stride=(1, 1), bias=False)
        (norm.2): BatchNorm2d(128, eps=1e-05, momentum=0.1, affine=True)
        (relu.2): ReLU(inplace)
        (conv.2): Conv2d(128, 32, kernel_size=(3, 3), stride=(1, 1), padding=(1, 1), bias=False)
      )
      (denselayer12): _DenseLayer(
        (norm.1): BatchNorm2d(480, eps=1e-05, momentum=0.1, affine=True)
        (relu.1): ReLU(inplace)
        (conv.1): Conv2d(480, 128, kernel_size=(1, 1), stride=(1, 1), bias=False)
        (norm.2): BatchNorm2d(128, eps=1e-05, momentum=0.1, affine=True)
        (relu.2): ReLU(inplace)
        (conv.2): Conv2d(128, 32, kernel_size=(3, 3), stride=(1, 1), padding=(1, 1), bias=False)
      )
    )
    (densblock2_2): _DenseBlock(
      (denselayer1): _DenseLayer(
        (norm.1): BatchNorm2d(256, eps=1e-05, momentum=0.1, affine=True)
        (relu.1): ReLU(inplace)
        (conv.1): Conv2d(256, 128, kernel_size=(1, 1), stride=(1, 1), bias=False)
        (norm.2): BatchNorm2d(128, eps=1e-05, momentum=0.1, affine=True)
        (relu.2): ReLU(inplace)
        (conv.2): Conv2d(128, 32, kernel_size=(3, 3), stride=(1, 1), padding=(1, 1), bias=False)
      )
      (denselayer2): _DenseLayer(
        (norm.1): BatchNorm2d(288, eps=1e-05, momentum=0.1, affine=True)
        (relu.1): ReLU(inplace)
        (conv.1): Conv2d(288, 128, kernel_size=(1, 1), stride=(1, 1), bias=False)
        (norm.2): BatchNorm2d(128, eps=1e-05, momentum=0.1, affine=True)
        (relu.2): ReLU(inplace)
        (conv.2): Conv2d(128, 32, kernel_size=(3, 3), stride=(1, 1), padding=(1, 1), bias=False)
      )
      (denselayer3): _DenseLayer(
        (norm.1): BatchNorm2d(320, eps=1e-05, momentum=0.1, affine=True)
        (relu.1): ReLU(inplace)
        (conv.1): Conv2d(320, 128, kernel_size=(1, 1), stride=(1, 1), bias=False)
        (norm.2): BatchNorm2d(128, eps=1e-05, momentum=0.1, affine=True)
        (relu.2): ReLU(inplace)
        (conv.2): Conv2d(128, 32, kernel_size=(3, 3), stride=(1, 1), padding=(1, 1), bias=False)
      )
      (denselayer4): _DenseLayer(
        (norm.1): BatchNorm2d(352, eps=1e-05, momentum=0.1, affine=True)
        (relu.1): ReLU(inplace)
        (conv.1): Conv2d(352, 128, kernel_size=(1, 1), stride=(1, 1), bias=False)
        (norm.2): BatchNorm2d(128, eps=1e-05, momentum=0.1, affine=True)
        (relu.2): ReLU(inplace)
        (conv.2): Conv2d(128, 32, kernel_size=(3, 3), stride=(1, 1), padding=(1, 1), bias=False)
      )
      (denselayer5): _DenseLayer(
        (norm.1): BatchNorm2d(384, eps=1e-05, momentum=0.1, affine=True)
        (relu.1): ReLU(inplace)
        (conv.1): Conv2d(384, 128, kernel_size=(1, 1), stride=(1, 1), bias=False)
        (norm.2): BatchNorm2d(128, eps=1e-05, momentum=0.1, affine=True)
        (relu.2): ReLU(inplace)
        (conv.2): Conv2d(128, 32, kernel_size=(3, 3), stride=(1, 1), padding=(1, 1), bias=False)
      )
      (denselayer6): _DenseLayer(
        (norm.1): BatchNorm2d(416, eps=1e-05, momentum=0.1, affine=True)
        (relu.1): ReLU(inplace)
        (conv.1): Conv2d(416, 128, kernel_size=(1, 1), stride=(1, 1), bias=False)
        (norm.2): BatchNorm2d(128, eps=1e-05, momentum=0.1, affine=True)
        (relu.2): ReLU(inplace)
        (conv.2): Conv2d(128, 32, kernel_size=(3, 3), stride=(1, 1), padding=(1, 1), bias=False)
      )
      (denselayer7): _DenseLayer(
        (norm.1): BatchNorm2d(448, eps=1e-05, momentum=0.1, affine=True)
        (relu.1): ReLU(inplace)
        (conv.1): Conv2d(448, 128, kernel_size=(1, 1), stride=(1, 1), bias=False)
        (norm.2): BatchNorm2d(128, eps=1e-05, momentum=0.1, affine=True)
        (relu.2): ReLU(inplace)
        (conv.2): Conv2d(128, 32, kernel_size=(3, 3), stride=(1, 1), padding=(1, 1), bias=False)
      )
      (denselayer8): _DenseLayer(
        (norm.1): BatchNorm2d(480, eps=1e-05, momentum=0.1, affine=True)
        (relu.1): ReLU(inplace)
        (conv.1): Conv2d(480, 128, kernel_size=(1, 1), stride=(1, 1), bias=False)
        (norm.2): BatchNorm2d(128, eps=1e-05, momentum=0.1, affine=True)
        (relu.2): ReLU(inplace)
        (conv.2): Conv2d(128, 32, kernel_size=(3, 3), stride=(1, 1), padding=(1, 1), bias=False)
      )
      (denselayer9): _DenseLayer(
        (norm.1): BatchNorm2d(512, eps=1e-05, momentum=0.1, affine=True)
        (relu.1): ReLU(inplace)
        (conv.1): Conv2d(512, 128, kernel_size=(1, 1), stride=(1, 1), bias=False)
        (norm.2): BatchNorm2d(128, eps=1e-05, momentum=0.1, affine=True)
        (relu.2): ReLU(inplace)
        (conv.2): Conv2d(128, 32, kernel_size=(3, 3), stride=(1, 1), padding=(1, 1), bias=False)
      )
      (denselayer10): _DenseLayer(
        (norm.1): BatchNorm2d(544, eps=1e-05, momentum=0.1, affine=True)
        (relu.1): ReLU(inplace)
        (conv.1): Conv2d(544, 128, kernel_size=(1, 1), stride=(1, 1), bias=False)
        (norm.2): BatchNorm2d(128, eps=1e-05, momentum=0.1, affine=True)
        (relu.2): ReLU(inplace)
        (conv.2): Conv2d(128, 32, kernel_size=(3, 3), stride=(1, 1), padding=(1, 1), bias=False)
      )
      (denselayer11): _DenseLayer(
        (norm.1): BatchNorm2d(576, eps=1e-05, momentum=0.1, affine=True)
        (relu.1): ReLU(inplace)
        (conv.1): Conv2d(576, 128, kernel_size=(1, 1), stride=(1, 1), bias=False)
        (norm.2): BatchNorm2d(128, eps=1e-05, momentum=0.1, affine=True)
        (relu.2): ReLU(inplace)
        (conv.2): Conv2d(128, 32, kernel_size=(3, 3), stride=(1, 1), padding=(1, 1), bias=False)
      )
      (denselayer12): _DenseLayer(
        (norm.1): BatchNorm2d(608, eps=1e-05, momentum=0.1, affine=True)
        (relu.1): ReLU(inplace)
        (conv.1): Conv2d(608, 128, kernel_size=(1, 1), stride=(1, 1), bias=False)
        (norm.2): BatchNorm2d(128, eps=1e-05, momentum=0.1, affine=True)
        (relu.2): ReLU(inplace)
        (conv.2): Conv2d(128, 32, kernel_size=(3, 3), stride=(1, 1), padding=(1, 1), bias=False)
      )
      (denselayer13): _DenseLayer(
        (norm.1): BatchNorm2d(640, eps=1e-05, momentum=0.1, affine=True)
        (relu.1): ReLU(inplace)
        (conv.1): Conv2d(640, 128, kernel_size=(1, 1), stride=(1, 1), bias=False)
        (norm.2): BatchNorm2d(128, eps=1e-05, momentum=0.1, affine=True)
        (relu.2): ReLU(inplace)
        (conv.2): Conv2d(128, 32, kernel_size=(3, 3), stride=(1, 1), padding=(1, 1), bias=False)
      )
      (denselayer14): _DenseLayer(
        (norm.1): BatchNorm2d(672, eps=1e-05, momentum=0.1, affine=True)
        (relu.1): ReLU(inplace)
        (conv.1): Conv2d(672, 128, kernel_size=(1, 1), stride=(1, 1), bias=False)
        (norm.2): BatchNorm2d(128, eps=1e-05, momentum=0.1, affine=True)
        (relu.2): ReLU(inplace)
        (conv.2): Conv2d(128, 32, kernel_size=(3, 3), stride=(1, 1), padding=(1, 1), bias=False)
      )
      (denselayer15): _DenseLayer(
        (norm.1): BatchNorm2d(704, eps=1e-05, momentum=0.1, affine=True)
        (relu.1): ReLU(inplace)
        (conv.1): Conv2d(704, 128, kernel_size=(1, 1), stride=(1, 1), bias=False)
        (norm.2): BatchNorm2d(128, eps=1e-05, momentum=0.1, affine=True)
        (relu.2): ReLU(inplace)
        (conv.2): Conv2d(128, 32, kernel_size=(3, 3), stride=(1, 1), padding=(1, 1), bias=False)
      )
      (denselayer16): _DenseLayer(
        (norm.1): BatchNorm2d(736, eps=1e-05, momentum=0.1, affine=True)
        (relu.1): ReLU(inplace)
        (conv.1): Conv2d(736, 128, kernel_size=(1, 1), stride=(1, 1), bias=False)
        (norm.2): BatchNorm2d(128, eps=1e-05, momentum=0.1, affine=True)
        (relu.2): ReLU(inplace)
        (conv.2): Conv2d(128, 32, kernel_size=(3, 3), stride=(1, 1), padding=(1, 1), bias=False)
      )
      (denselayer17): _DenseLayer(
        (norm.1): BatchNorm2d(768, eps=1e-05, momentum=0.1, affine=True)
        (relu.1): ReLU(inplace)
        (conv.1): Conv2d(768, 128, kernel_size=(1, 1), stride=(1, 1), bias=False)
        (norm.2): BatchNorm2d(128, eps=1e-05, momentum=0.1, affine=True)
        (relu.2): ReLU(inplace)
        (conv.2): Conv2d(128, 32, kernel_size=(3, 3), stride=(1, 1), padding=(1, 1), bias=False)
      )
      (denselayer18): _DenseLayer(
        (norm.1): BatchNorm2d(800, eps=1e-05, momentum=0.1, affine=True)
        (relu.1): ReLU(inplace)
        (conv.1): Conv2d(800, 128, kernel_size=(1, 1), stride=(1, 1), bias=False)
        (norm.2): BatchNorm2d(128, eps=1e-05, momentum=0.1, affine=True)
        (relu.2): ReLU(inplace)
        (conv.2): Conv2d(128, 32, kernel_size=(3, 3), stride=(1, 1), padding=(1, 1), bias=False)
      )
      (denselayer19): _DenseLayer(
        (norm.1): BatchNorm2d(832, eps=1e-05, momentum=0.1, affine=True)
        (relu.1): ReLU(inplace)
        (conv.1): Conv2d(832, 128, kernel_size=(1, 1), stride=(1, 1), bias=False)
        (norm.2): BatchNorm2d(128, eps=1e-05, momentum=0.1, affine=True)
        (relu.2): ReLU(inplace)
        (conv.2): Conv2d(128, 32, kernel_size=(3, 3), stride=(1, 1), padding=(1, 1), bias=False)
      )
      (denselayer20): _DenseLayer(
        (norm.1): BatchNorm2d(864, eps=1e-05, momentum=0.1, affine=True)
        (relu.1): ReLU(inplace)
        (conv.1): Conv2d(864, 128, kernel_size=(1, 1), stride=(1, 1), bias=False)
        (norm.2): BatchNorm2d(128, eps=1e-05, momentum=0.1, affine=True)
        (relu.2): ReLU(inplace)
        (conv.2): Conv2d(128, 32, kernel_size=(3, 3), stride=(1, 1), padding=(1, 1), bias=False)
      )
      (denselayer21): _DenseLayer(
        (norm.1): BatchNorm2d(896, eps=1e-05, momentum=0.1, affine=True)
        (relu.1): ReLU(inplace)
        (conv.1): Conv2d(896, 128, kernel_size=(1, 1), stride=(1, 1), bias=False)
        (norm.2): BatchNorm2d(128, eps=1e-05, momentum=0.1, affine=True)
        (relu.2): ReLU(inplace)
        (conv.2): Conv2d(128, 32, kernel_size=(3, 3), stride=(1, 1), padding=(1, 1), bias=False)
      )
      (denselayer22): _DenseLayer(
        (norm.1): BatchNorm2d(928, eps=1e-05, momentum=0.1, affine=True)
        (relu.1): ReLU(inplace)
        (conv.1): Conv2d(928, 128, kernel_size=(1, 1), stride=(1, 1), bias=False)
        (norm.2): BatchNorm2d(128, eps=1e-05, momentum=0.1, affine=True)
        (relu.2): ReLU(inplace)
        (conv.2): Conv2d(128, 32, kernel_size=(3, 3), stride=(1, 1), padding=(1, 1), bias=False)
      )
      (denselayer23): _DenseLayer(
        (norm.1): BatchNorm2d(960, eps=1e-05, momentum=0.1, affine=True)
        (relu.1): ReLU(inplace)
        (conv.1): Conv2d(960, 128, kernel_size=(1, 1), stride=(1, 1), bias=False)
        (norm.2): BatchNorm2d(128, eps=1e-05, momentum=0.1, affine=True)
        (relu.2): ReLU(inplace)
        (conv.2): Conv2d(128, 32, kernel_size=(3, 3), stride=(1, 1), padding=(1, 1), bias=False)
      )
      (denselayer24): _DenseLayer(
        (norm.1): BatchNorm2d(992, eps=1e-05, momentum=0.1, affine=True)
        (relu.1): ReLU(inplace)
        (conv.1): Conv2d(992, 128, kernel_size=(1, 1), stride=(1, 1), bias=False)
        (norm.2): BatchNorm2d(128, eps=1e-05, momentum=0.1, affine=True)
        (relu.2): ReLU(inplace)
        (conv.2): Conv2d(128, 32, kernel_size=(3, 3), stride=(1, 1), padding=(1, 1), bias=False)
      )
      (denselayer25): _DenseLayer(
        (norm.1): BatchNorm2d(1024, eps=1e-05, momentum=0.1, affine=True)
        (relu.1): ReLU(inplace)
        (conv.1): Conv2d(1024, 128, kernel_size=(1, 1), stride=(1, 1), bias=False)
        (norm.2): BatchNorm2d(128, eps=1e-05, momentum=0.1, affine=True)
        (relu.2): ReLU(inplace)
        (conv.2): Conv2d(128, 32, kernel_size=(3, 3), stride=(1, 1), padding=(1, 1), bias=False)
      )
      (denselayer26): _DenseLayer(
        (norm.1): BatchNorm2d(1056, eps=1e-05, momentum=0.1, affine=True)
        (relu.1): ReLU(inplace)
        (conv.1): Conv2d(1056, 128, kernel_size=(1, 1), stride=(1, 1), bias=False)
        (norm.2): BatchNorm2d(128, eps=1e-05, momentum=0.1, affine=True)
        (relu.2): ReLU(inplace)
        (conv.2): Conv2d(128, 32, kernel_size=(3, 3), stride=(1, 1), padding=(1, 1), bias=False)
      )
      (denselayer27): _DenseLayer(
        (norm.1): BatchNorm2d(1088, eps=1e-05, momentum=0.1, affine=True)
        (relu.1): ReLU(inplace)
        (conv.1): Conv2d(1088, 128, kernel_size=(1, 1), stride=(1, 1), bias=False)
        (norm.2): BatchNorm2d(128, eps=1e-05, momentum=0.1, affine=True)
        (relu.2): ReLU(inplace)
        (conv.2): Conv2d(128, 32, kernel_size=(3, 3), stride=(1, 1), padding=(1, 1), bias=False)
      )
      (denselayer28): _DenseLayer(
        (norm.1): BatchNorm2d(1120, eps=1e-05, momentum=0.1, affine=True)
        (relu.1): ReLU(inplace)
        (conv.1): Conv2d(1120, 128, kernel_size=(1, 1), stride=(1, 1), bias=False)
        (norm.2): BatchNorm2d(128, eps=1e-05, momentum=0.1, affine=True)
        (relu.2): ReLU(inplace)
        (conv.2): Conv2d(128, 32, kernel_size=(3, 3), stride=(1, 1), padding=(1, 1), bias=False)
      )
      (denselayer29): _DenseLayer(
        (norm.1): BatchNorm2d(1152, eps=1e-05, momentum=0.1, affine=True)
        (relu.1): ReLU(inplace)
        (conv.1): Conv2d(1152, 128, kernel_size=(1, 1), stride=(1, 1), bias=False)
        (norm.2): BatchNorm2d(128, eps=1e-05, momentum=0.1, affine=True)
        (relu.2): ReLU(inplace)
        (conv.2): Conv2d(128, 32, kernel_size=(3, 3), stride=(1, 1), padding=(1, 1), bias=False)
      )
      (denselayer30): _DenseLayer(
        (norm.1): BatchNorm2d(1184, eps=1e-05, momentum=0.1, affine=True)
        (relu.1): ReLU(inplace)
        (conv.1): Conv2d(1184, 128, kernel_size=(1, 1), stride=(1, 1), bias=False)
        (norm.2): BatchNorm2d(128, eps=1e-05, momentum=0.1, affine=True)
        (relu.2): ReLU(inplace)
        (conv.2): Conv2d(128, 32, kernel_size=(3, 3), stride=(1, 1), padding=(1, 1), bias=False)
      )
      (denselayer31): _DenseLayer(
        (norm.1): BatchNorm2d(1216, eps=1e-05, momentum=0.1, affine=True)
        (relu.1): ReLU(inplace)
        (conv.1): Conv2d(1216, 128, kernel_size=(1, 1), stride=(1, 1), bias=False)
        (norm.2): BatchNorm2d(128, eps=1e-05, momentum=0.1, affine=True)
        (relu.2): ReLU(inplace)
        (conv.2): Conv2d(128, 32, kernel_size=(3, 3), stride=(1, 1), padding=(1, 1), bias=False)
      )
      (denselayer32): _DenseLayer(
        (norm.1): BatchNorm2d(1248, eps=1e-05, momentum=0.1, affine=True)
        (relu.1): ReLU(inplace)
        (conv.1): Conv2d(1248, 128, kernel_size=(1, 1), stride=(1, 1), bias=False)
        (norm.2): BatchNorm2d(128, eps=1e-05, momentum=0.1, affine=True)
        (relu.2): ReLU(inplace)
        (conv.2): Conv2d(128, 32, kernel_size=(3, 3), stride=(1, 1), padding=(1, 1), bias=False)
      )
    )
    (densblock2_3): _DenseBlock(
      (denselayer1): _DenseLayer(
        (norm.1): BatchNorm2d(640, eps=1e-05, momentum=0.1, affine=True)
        (relu.1): ReLU(inplace)
        (conv.1): Conv2d(640, 128, kernel_size=(1, 1), stride=(1, 1), bias=False)
        (norm.2): BatchNorm2d(128, eps=1e-05, momentum=0.1, affine=True)
        (relu.2): ReLU(inplace)
        (conv.2): Conv2d(128, 32, kernel_size=(3, 3), stride=(1, 1), padding=(1, 1), bias=False)
      )
      (denselayer2): _DenseLayer(
        (norm.1): BatchNorm2d(672, eps=1e-05, momentum=0.1, affine=True)
        (relu.1): ReLU(inplace)
        (conv.1): Conv2d(672, 128, kernel_size=(1, 1), stride=(1, 1), bias=False)
        (norm.2): BatchNorm2d(128, eps=1e-05, momentum=0.1, affine=True)
        (relu.2): ReLU(inplace)
        (conv.2): Conv2d(128, 32, kernel_size=(3, 3), stride=(1, 1), padding=(1, 1), bias=False)
      )
      (denselayer3): _DenseLayer(
        (norm.1): BatchNorm2d(704, eps=1e-05, momentum=0.1, affine=True)
        (relu.1): ReLU(inplace)
        (conv.1): Conv2d(704, 128, kernel_size=(1, 1), stride=(1, 1), bias=False)
        (norm.2): BatchNorm2d(128, eps=1e-05, momentum=0.1, affine=True)
        (relu.2): ReLU(inplace)
        (conv.2): Conv2d(128, 32, kernel_size=(3, 3), stride=(1, 1), padding=(1, 1), bias=False)
      )
      (denselayer4): _DenseLayer(
        (norm.1): BatchNorm2d(736, eps=1e-05, momentum=0.1, affine=True)
        (relu.1): ReLU(inplace)
        (conv.1): Conv2d(736, 128, kernel_size=(1, 1), stride=(1, 1), bias=False)
        (norm.2): BatchNorm2d(128, eps=1e-05, momentum=0.1, affine=True)
        (relu.2): ReLU(inplace)
        (conv.2): Conv2d(128, 32, kernel_size=(3, 3), stride=(1, 1), padding=(1, 1), bias=False)
      )
      (denselayer5): _DenseLayer(
        (norm.1): BatchNorm2d(768, eps=1e-05, momentum=0.1, affine=True)
        (relu.1): ReLU(inplace)
        (conv.1): Conv2d(768, 128, kernel_size=(1, 1), stride=(1, 1), bias=False)
        (norm.2): BatchNorm2d(128, eps=1e-05, momentum=0.1, affine=True)
        (relu.2): ReLU(inplace)
        (conv.2): Conv2d(128, 32, kernel_size=(3, 3), stride=(1, 1), padding=(1, 1), bias=False)
      )
      (denselayer6): _DenseLayer(
        (norm.1): BatchNorm2d(800, eps=1e-05, momentum=0.1, affine=True)
        (relu.1): ReLU(inplace)
        (conv.1): Conv2d(800, 128, kernel_size=(1, 1), stride=(1, 1), bias=False)
        (norm.2): BatchNorm2d(128, eps=1e-05, momentum=0.1, affine=True)
        (relu.2): ReLU(inplace)
        (conv.2): Conv2d(128, 32, kernel_size=(3, 3), stride=(1, 1), padding=(1, 1), bias=False)
      )
      (denselayer7): _DenseLayer(
        (norm.1): BatchNorm2d(832, eps=1e-05, momentum=0.1, affine=True)
        (relu.1): ReLU(inplace)
        (conv.1): Conv2d(832, 128, kernel_size=(1, 1), stride=(1, 1), bias=False)
        (norm.2): BatchNorm2d(128, eps=1e-05, momentum=0.1, affine=True)
        (relu.2): ReLU(inplace)
        (conv.2): Conv2d(128, 32, kernel_size=(3, 3), stride=(1, 1), padding=(1, 1), bias=False)
      )
      (denselayer8): _DenseLayer(
        (norm.1): BatchNorm2d(864, eps=1e-05, momentum=0.1, affine=True)
        (relu.1): ReLU(inplace)
        (conv.1): Conv2d(864, 128, kernel_size=(1, 1), stride=(1, 1), bias=False)
        (norm.2): BatchNorm2d(128, eps=1e-05, momentum=0.1, affine=True)
        (relu.2): ReLU(inplace)
        (conv.2): Conv2d(128, 32, kernel_size=(3, 3), stride=(1, 1), padding=(1, 1), bias=False)
      )
      (denselayer9): _DenseLayer(
        (norm.1): BatchNorm2d(896, eps=1e-05, momentum=0.1, affine=True)
        (relu.1): ReLU(inplace)
        (conv.1): Conv2d(896, 128, kernel_size=(1, 1), stride=(1, 1), bias=False)
        (norm.2): BatchNorm2d(128, eps=1e-05, momentum=0.1, affine=True)
        (relu.2): ReLU(inplace)
        (conv.2): Conv2d(128, 32, kernel_size=(3, 3), stride=(1, 1), padding=(1, 1), bias=False)
      )
      (denselayer10): _DenseLayer(
        (norm.1): BatchNorm2d(928, eps=1e-05, momentum=0.1, affine=True)
        (relu.1): ReLU(inplace)
        (conv.1): Conv2d(928, 128, kernel_size=(1, 1), stride=(1, 1), bias=False)
        (norm.2): BatchNorm2d(128, eps=1e-05, momentum=0.1, affine=True)
        (relu.2): ReLU(inplace)
        (conv.2): Conv2d(128, 32, kernel_size=(3, 3), stride=(1, 1), padding=(1, 1), bias=False)
      )
      (denselayer11): _DenseLayer(
        (norm.1): BatchNorm2d(960, eps=1e-05, momentum=0.1, affine=True)
        (relu.1): ReLU(inplace)
        (conv.1): Conv2d(960, 128, kernel_size=(1, 1), stride=(1, 1), bias=False)
        (norm.2): BatchNorm2d(128, eps=1e-05, momentum=0.1, affine=True)
        (relu.2): ReLU(inplace)
        (conv.2): Conv2d(128, 32, kernel_size=(3, 3), stride=(1, 1), padding=(1, 1), bias=False)
      )
      (denselayer12): _DenseLayer(
        (norm.1): BatchNorm2d(992, eps=1e-05, momentum=0.1, affine=True)
        (relu.1): ReLU(inplace)
        (conv.1): Conv2d(992, 128, kernel_size=(1, 1), stride=(1, 1), bias=False)
        (norm.2): BatchNorm2d(128, eps=1e-05, momentum=0.1, affine=True)
        (relu.2): ReLU(inplace)
        (conv.2): Conv2d(128, 32, kernel_size=(3, 3), stride=(1, 1), padding=(1, 1), bias=False)
      )
      (denselayer13): _DenseLayer(
        (norm.1): BatchNorm2d(1024, eps=1e-05, momentum=0.1, affine=True)
        (relu.1): ReLU(inplace)
        (conv.1): Conv2d(1024, 128, kernel_size=(1, 1), stride=(1, 1), bias=False)
        (norm.2): BatchNorm2d(128, eps=1e-05, momentum=0.1, affine=True)
        (relu.2): ReLU(inplace)
        (conv.2): Conv2d(128, 32, kernel_size=(3, 3), stride=(1, 1), padding=(1, 1), bias=False)
      )
      (denselayer14): _DenseLayer(
        (norm.1): BatchNorm2d(1056, eps=1e-05, momentum=0.1, affine=True)
        (relu.1): ReLU(inplace)
        (conv.1): Conv2d(1056, 128, kernel_size=(1, 1), stride=(1, 1), bias=False)
        (norm.2): BatchNorm2d(128, eps=1e-05, momentum=0.1, affine=True)
        (relu.2): ReLU(inplace)
        (conv.2): Conv2d(128, 32, kernel_size=(3, 3), stride=(1, 1), padding=(1, 1), bias=False)
      )
      (denselayer15): _DenseLayer(
        (norm.1): BatchNorm2d(1088, eps=1e-05, momentum=0.1, affine=True)
        (relu.1): ReLU(inplace)
        (conv.1): Conv2d(1088, 128, kernel_size=(1, 1), stride=(1, 1), bias=False)
        (norm.2): BatchNorm2d(128, eps=1e-05, momentum=0.1, affine=True)
        (relu.2): ReLU(inplace)
        (conv.2): Conv2d(128, 32, kernel_size=(3, 3), stride=(1, 1), padding=(1, 1), bias=False)
      )
      (denselayer16): _DenseLayer(
        (norm.1): BatchNorm2d(1120, eps=1e-05, momentum=0.1, affine=True)
        (relu.1): ReLU(inplace)
        (conv.1): Conv2d(1120, 128, kernel_size=(1, 1), stride=(1, 1), bias=False)
        (norm.2): BatchNorm2d(128, eps=1e-05, momentum=0.1, affine=True)
        (relu.2): ReLU(inplace)
        (conv.2): Conv2d(128, 32, kernel_size=(3, 3), stride=(1, 1), padding=(1, 1), bias=False)
      )
      (denselayer17): _DenseLayer(
        (norm.1): BatchNorm2d(1152, eps=1e-05, momentum=0.1, affine=True)
        (relu.1): ReLU(inplace)
        (conv.1): Conv2d(1152, 128, kernel_size=(1, 1), stride=(1, 1), bias=False)
        (norm.2): BatchNorm2d(128, eps=1e-05, momentum=0.1, affine=True)
        (relu.2): ReLU(inplace)
        (conv.2): Conv2d(128, 32, kernel_size=(3, 3), stride=(1, 1), padding=(1, 1), bias=False)
      )
      (denselayer18): _DenseLayer(
        (norm.1): BatchNorm2d(1184, eps=1e-05, momentum=0.1, affine=True)
        (relu.1): ReLU(inplace)
        (conv.1): Conv2d(1184, 128, kernel_size=(1, 1), stride=(1, 1), bias=False)
        (norm.2): BatchNorm2d(128, eps=1e-05, momentum=0.1, affine=True)
        (relu.2): ReLU(inplace)
        (conv.2): Conv2d(128, 32, kernel_size=(3, 3), stride=(1, 1), padding=(1, 1), bias=False)
      )
      (denselayer19): _DenseLayer(
        (norm.1): BatchNorm2d(1216, eps=1e-05, momentum=0.1, affine=True)
        (relu.1): ReLU(inplace)
        (conv.1): Conv2d(1216, 128, kernel_size=(1, 1), stride=(1, 1), bias=False)
        (norm.2): BatchNorm2d(128, eps=1e-05, momentum=0.1, affine=True)
        (relu.2): ReLU(inplace)
        (conv.2): Conv2d(128, 32, kernel_size=(3, 3), stride=(1, 1), padding=(1, 1), bias=False)
      )
      (denselayer20): _DenseLayer(
        (norm.1): BatchNorm2d(1248, eps=1e-05, momentum=0.1, affine=True)
        (relu.1): ReLU(inplace)
        (conv.1): Conv2d(1248, 128, kernel_size=(1, 1), stride=(1, 1), bias=False)
        (norm.2): BatchNorm2d(128, eps=1e-05, momentum=0.1, affine=True)
        (relu.2): ReLU(inplace)
        (conv.2): Conv2d(128, 32, kernel_size=(3, 3), stride=(1, 1), padding=(1, 1), bias=False)
      )
      (denselayer21): _DenseLayer(
        (norm.1): BatchNorm2d(1280, eps=1e-05, momentum=0.1, affine=True)
        (relu.1): ReLU(inplace)
        (conv.1): Conv2d(1280, 128, kernel_size=(1, 1), stride=(1, 1), bias=False)
        (norm.2): BatchNorm2d(128, eps=1e-05, momentum=0.1, affine=True)
        (relu.2): ReLU(inplace)
        (conv.2): Conv2d(128, 32, kernel_size=(3, 3), stride=(1, 1), padding=(1, 1), bias=False)
      )
      (denselayer22): _DenseLayer(
        (norm.1): BatchNorm2d(1312, eps=1e-05, momentum=0.1, affine=True)
        (relu.1): ReLU(inplace)
        (conv.1): Conv2d(1312, 128, kernel_size=(1, 1), stride=(1, 1), bias=False)
        (norm.2): BatchNorm2d(128, eps=1e-05, momentum=0.1, affine=True)
        (relu.2): ReLU(inplace)
        (conv.2): Conv2d(128, 32, kernel_size=(3, 3), stride=(1, 1), padding=(1, 1), bias=False)
      )
      (denselayer23): _DenseLayer(
        (norm.1): BatchNorm2d(1344, eps=1e-05, momentum=0.1, affine=True)
        (relu.1): ReLU(inplace)
        (conv.1): Conv2d(1344, 128, kernel_size=(1, 1), stride=(1, 1), bias=False)
        (norm.2): BatchNorm2d(128, eps=1e-05, momentum=0.1, affine=True)
        (relu.2): ReLU(inplace)
        (conv.2): Conv2d(128, 32, kernel_size=(3, 3), stride=(1, 1), padding=(1, 1), bias=False)
      )
      (denselayer24): _DenseLayer(
        (norm.1): BatchNorm2d(1376, eps=1e-05, momentum=0.1, affine=True)
        (relu.1): ReLU(inplace)
        (conv.1): Conv2d(1376, 128, kernel_size=(1, 1), stride=(1, 1), bias=False)
        (norm.2): BatchNorm2d(128, eps=1e-05, momentum=0.1, affine=True)
        (relu.2): ReLU(inplace)
        (conv.2): Conv2d(128, 32, kernel_size=(3, 3), stride=(1, 1), padding=(1, 1), bias=False)
      )
      (denselayer25): _DenseLayer(
        (norm.1): BatchNorm2d(1408, eps=1e-05, momentum=0.1, affine=True)
        (relu.1): ReLU(inplace)
        (conv.1): Conv2d(1408, 128, kernel_size=(1, 1), stride=(1, 1), bias=False)
        (norm.2): BatchNorm2d(128, eps=1e-05, momentum=0.1, affine=True)
        (relu.2): ReLU(inplace)
        (conv.2): Conv2d(128, 32, kernel_size=(3, 3), stride=(1, 1), padding=(1, 1), bias=False)
      )
      (denselayer26): _DenseLayer(
        (norm.1): BatchNorm2d(1440, eps=1e-05, momentum=0.1, affine=True)
        (relu.1): ReLU(inplace)
        (conv.1): Conv2d(1440, 128, kernel_size=(1, 1), stride=(1, 1), bias=False)
        (norm.2): BatchNorm2d(128, eps=1e-05, momentum=0.1, affine=True)
        (relu.2): ReLU(inplace)
        (conv.2): Conv2d(128, 32, kernel_size=(3, 3), stride=(1, 1), padding=(1, 1), bias=False)
      )
      (denselayer27): _DenseLayer(
        (norm.1): BatchNorm2d(1472, eps=1e-05, momentum=0.1, affine=True)
        (relu.1): ReLU(inplace)
        (conv.1): Conv2d(1472, 128, kernel_size=(1, 1), stride=(1, 1), bias=False)
        (norm.2): BatchNorm2d(128, eps=1e-05, momentum=0.1, affine=True)
        (relu.2): ReLU(inplace)
        (conv.2): Conv2d(128, 32, kernel_size=(3, 3), stride=(1, 1), padding=(1, 1), bias=False)
      )
      (denselayer28): _DenseLayer(
        (norm.1): BatchNorm2d(1504, eps=1e-05, momentum=0.1, affine=True)
        (relu.1): ReLU(inplace)
        (conv.1): Conv2d(1504, 128, kernel_size=(1, 1), stride=(1, 1), bias=False)
        (norm.2): BatchNorm2d(128, eps=1e-05, momentum=0.1, affine=True)
        (relu.2): ReLU(inplace)
        (conv.2): Conv2d(128, 32, kernel_size=(3, 3), stride=(1, 1), padding=(1, 1), bias=False)
      )
      (denselayer29): _DenseLayer(
        (norm.1): BatchNorm2d(1536, eps=1e-05, momentum=0.1, affine=True)
        (relu.1): ReLU(inplace)
        (conv.1): Conv2d(1536, 128, kernel_size=(1, 1), stride=(1, 1), bias=False)
        (norm.2): BatchNorm2d(128, eps=1e-05, momentum=0.1, affine=True)
        (relu.2): ReLU(inplace)
        (conv.2): Conv2d(128, 32, kernel_size=(3, 3), stride=(1, 1), padding=(1, 1), bias=False)
      )
      (denselayer30): _DenseLayer(
        (norm.1): BatchNorm2d(1568, eps=1e-05, momentum=0.1, affine=True)
        (relu.1): ReLU(inplace)
        (conv.1): Conv2d(1568, 128, kernel_size=(1, 1), stride=(1, 1), bias=False)
        (norm.2): BatchNorm2d(128, eps=1e-05, momentum=0.1, affine=True)
        (relu.2): ReLU(inplace)
        (conv.2): Conv2d(128, 32, kernel_size=(3, 3), stride=(1, 1), padding=(1, 1), bias=False)
      )
      (denselayer31): _DenseLayer(
        (norm.1): BatchNorm2d(1600, eps=1e-05, momentum=0.1, affine=True)
        (relu.1): ReLU(inplace)
        (conv.1): Conv2d(1600, 128, kernel_size=(1, 1), stride=(1, 1), bias=False)
        (norm.2): BatchNorm2d(128, eps=1e-05, momentum=0.1, affine=True)
        (relu.2): ReLU(inplace)
        (conv.2): Conv2d(128, 32, kernel_size=(3, 3), stride=(1, 1), padding=(1, 1), bias=False)
      )
      (denselayer32): _DenseLayer(
        (norm.1): BatchNorm2d(1632, eps=1e-05, momentum=0.1, affine=True)
        (relu.1): ReLU(inplace)
        (conv.1): Conv2d(1632, 128, kernel_size=(1, 1), stride=(1, 1), bias=False)
        (norm.2): BatchNorm2d(128, eps=1e-05, momentum=0.1, affine=True)
        (relu.2): ReLU(inplace)
        (conv.2): Conv2d(128, 32, kernel_size=(3, 3), stride=(1, 1), padding=(1, 1), bias=False)
      )
    )
    (densblock3_1): _DenseBlock(
      (denselayer1): _DenseLayer(
        (norm.1): BatchNorm2d(128, eps=1e-05, momentum=0.1, affine=True)
        (relu.1): ReLU(inplace)
        (conv.1): Conv2d(128, 128, kernel_size=(1, 1), stride=(1, 1), bias=False)
        (norm.2): BatchNorm2d(128, eps=1e-05, momentum=0.1, affine=True)
        (relu.2): ReLU(inplace)
        (conv.2): Conv2d(128, 32, kernel_size=(3, 3), stride=(1, 1), padding=(1, 1), bias=False)
      )
      (denselayer2): _DenseLayer(
        (norm.1): BatchNorm2d(160, eps=1e-05, momentum=0.1, affine=True)
        (relu.1): ReLU(inplace)
        (conv.1): Conv2d(160, 128, kernel_size=(1, 1), stride=(1, 1), bias=False)
        (norm.2): BatchNorm2d(128, eps=1e-05, momentum=0.1, affine=True)
        (relu.2): ReLU(inplace)
        (conv.2): Conv2d(128, 32, kernel_size=(3, 3), stride=(1, 1), padding=(1, 1), bias=False)
      )
      (denselayer3): _DenseLayer(
        (norm.1): BatchNorm2d(192, eps=1e-05, momentum=0.1, affine=True)
        (relu.1): ReLU(inplace)
        (conv.1): Conv2d(192, 128, kernel_size=(1, 1), stride=(1, 1), bias=False)
        (norm.2): BatchNorm2d(128, eps=1e-05, momentum=0.1, affine=True)
        (relu.2): ReLU(inplace)
        (conv.2): Conv2d(128, 32, kernel_size=(3, 3), stride=(1, 1), padding=(1, 1), bias=False)
      )
      (denselayer4): _DenseLayer(
        (norm.1): BatchNorm2d(224, eps=1e-05, momentum=0.1, affine=True)
        (relu.1): ReLU(inplace)
        (conv.1): Conv2d(224, 128, kernel_size=(1, 1), stride=(1, 1), bias=False)
        (norm.2): BatchNorm2d(128, eps=1e-05, momentum=0.1, affine=True)
        (relu.2): ReLU(inplace)
        (conv.2): Conv2d(128, 32, kernel_size=(3, 3), stride=(1, 1), padding=(1, 1), bias=False)
      )
      (denselayer5): _DenseLayer(
        (norm.1): BatchNorm2d(256, eps=1e-05, momentum=0.1, affine=True)
        (relu.1): ReLU(inplace)
        (conv.1): Conv2d(256, 128, kernel_size=(1, 1), stride=(1, 1), bias=False)
        (norm.2): BatchNorm2d(128, eps=1e-05, momentum=0.1, affine=True)
        (relu.2): ReLU(inplace)
        (conv.2): Conv2d(128, 32, kernel_size=(3, 3), stride=(1, 1), padding=(1, 1), bias=False)
      )
      (denselayer6): _DenseLayer(
        (norm.1): BatchNorm2d(288, eps=1e-05, momentum=0.1, affine=True)
        (relu.1): ReLU(inplace)
        (conv.1): Conv2d(288, 128, kernel_size=(1, 1), stride=(1, 1), bias=False)
        (norm.2): BatchNorm2d(128, eps=1e-05, momentum=0.1, affine=True)
        (relu.2): ReLU(inplace)
        (conv.2): Conv2d(128, 32, kernel_size=(3, 3), stride=(1, 1), padding=(1, 1), bias=False)
      )
      (denselayer7): _DenseLayer(
        (norm.1): BatchNorm2d(320, eps=1e-05, momentum=0.1, affine=True)
        (relu.1): ReLU(inplace)
        (conv.1): Conv2d(320, 128, kernel_size=(1, 1), stride=(1, 1), bias=False)
        (norm.2): BatchNorm2d(128, eps=1e-05, momentum=0.1, affine=True)
        (relu.2): ReLU(inplace)
        (conv.2): Conv2d(128, 32, kernel_size=(3, 3), stride=(1, 1), padding=(1, 1), bias=False)
      )
      (denselayer8): _DenseLayer(
        (norm.1): BatchNorm2d(352, eps=1e-05, momentum=0.1, affine=True)
        (relu.1): ReLU(inplace)
        (conv.1): Conv2d(352, 128, kernel_size=(1, 1), stride=(1, 1), bias=False)
        (norm.2): BatchNorm2d(128, eps=1e-05, momentum=0.1, affine=True)
        (relu.2): ReLU(inplace)
        (conv.2): Conv2d(128, 32, kernel_size=(3, 3), stride=(1, 1), padding=(1, 1), bias=False)
      )
      (denselayer9): _DenseLayer(
        (norm.1): BatchNorm2d(384, eps=1e-05, momentum=0.1, affine=True)
        (relu.1): ReLU(inplace)
        (conv.1): Conv2d(384, 128, kernel_size=(1, 1), stride=(1, 1), bias=False)
        (norm.2): BatchNorm2d(128, eps=1e-05, momentum=0.1, affine=True)
        (relu.2): ReLU(inplace)
        (conv.2): Conv2d(128, 32, kernel_size=(3, 3), stride=(1, 1), padding=(1, 1), bias=False)
      )
      (denselayer10): _DenseLayer(
        (norm.1): BatchNorm2d(416, eps=1e-05, momentum=0.1, affine=True)
        (relu.1): ReLU(inplace)
        (conv.1): Conv2d(416, 128, kernel_size=(1, 1), stride=(1, 1), bias=False)
        (norm.2): BatchNorm2d(128, eps=1e-05, momentum=0.1, affine=True)
        (relu.2): ReLU(inplace)
        (conv.2): Conv2d(128, 32, kernel_size=(3, 3), stride=(1, 1), padding=(1, 1), bias=False)
      )
      (denselayer11): _DenseLayer(
        (norm.1): BatchNorm2d(448, eps=1e-05, momentum=0.1, affine=True)
        (relu.1): ReLU(inplace)
        (conv.1): Conv2d(448, 128, kernel_size=(1, 1), stride=(1, 1), bias=False)
        (norm.2): BatchNorm2d(128, eps=1e-05, momentum=0.1, affine=True)
        (relu.2): ReLU(inplace)
        (conv.2): Conv2d(128, 32, kernel_size=(3, 3), stride=(1, 1), padding=(1, 1), bias=False)
      )
      (denselayer12): _DenseLayer(
        (norm.1): BatchNorm2d(480, eps=1e-05, momentum=0.1, affine=True)
        (relu.1): ReLU(inplace)
        (conv.1): Conv2d(480, 128, kernel_size=(1, 1), stride=(1, 1), bias=False)
        (norm.2): BatchNorm2d(128, eps=1e-05, momentum=0.1, affine=True)
        (relu.2): ReLU(inplace)
        (conv.2): Conv2d(128, 32, kernel_size=(3, 3), stride=(1, 1), padding=(1, 1), bias=False)
      )
    )
    (densblock3_2): _DenseBlock(
      (denselayer1): _DenseLayer(
        (norm.1): BatchNorm2d(256, eps=1e-05, momentum=0.1, affine=True)
        (relu.1): ReLU(inplace)
        (conv.1): Conv2d(256, 128, kernel_size=(1, 1), stride=(1, 1), bias=False)
        (norm.2): BatchNorm2d(128, eps=1e-05, momentum=0.1, affine=True)
        (relu.2): ReLU(inplace)
        (conv.2): Conv2d(128, 32, kernel_size=(3, 3), stride=(1, 1), padding=(1, 1), bias=False)
      )
      (denselayer2): _DenseLayer(
        (norm.1): BatchNorm2d(288, eps=1e-05, momentum=0.1, affine=True)
        (relu.1): ReLU(inplace)
        (conv.1): Conv2d(288, 128, kernel_size=(1, 1), stride=(1, 1), bias=False)
        (norm.2): BatchNorm2d(128, eps=1e-05, momentum=0.1, affine=True)
        (relu.2): ReLU(inplace)
        (conv.2): Conv2d(128, 32, kernel_size=(3, 3), stride=(1, 1), padding=(1, 1), bias=False)
      )
      (denselayer3): _DenseLayer(
        (norm.1): BatchNorm2d(320, eps=1e-05, momentum=0.1, affine=True)
        (relu.1): ReLU(inplace)
        (conv.1): Conv2d(320, 128, kernel_size=(1, 1), stride=(1, 1), bias=False)
        (norm.2): BatchNorm2d(128, eps=1e-05, momentum=0.1, affine=True)
        (relu.2): ReLU(inplace)
        (conv.2): Conv2d(128, 32, kernel_size=(3, 3), stride=(1, 1), padding=(1, 1), bias=False)
      )
      (denselayer4): _DenseLayer(
        (norm.1): BatchNorm2d(352, eps=1e-05, momentum=0.1, affine=True)
        (relu.1): ReLU(inplace)
        (conv.1): Conv2d(352, 128, kernel_size=(1, 1), stride=(1, 1), bias=False)
        (norm.2): BatchNorm2d(128, eps=1e-05, momentum=0.1, affine=True)
        (relu.2): ReLU(inplace)
        (conv.2): Conv2d(128, 32, kernel_size=(3, 3), stride=(1, 1), padding=(1, 1), bias=False)
      )
      (denselayer5): _DenseLayer(
        (norm.1): BatchNorm2d(384, eps=1e-05, momentum=0.1, affine=True)
        (relu.1): ReLU(inplace)
        (conv.1): Conv2d(384, 128, kernel_size=(1, 1), stride=(1, 1), bias=False)
        (norm.2): BatchNorm2d(128, eps=1e-05, momentum=0.1, affine=True)
        (relu.2): ReLU(inplace)
        (conv.2): Conv2d(128, 32, kernel_size=(3, 3), stride=(1, 1), padding=(1, 1), bias=False)
      )
      (denselayer6): _DenseLayer(
        (norm.1): BatchNorm2d(416, eps=1e-05, momentum=0.1, affine=True)
        (relu.1): ReLU(inplace)
        (conv.1): Conv2d(416, 128, kernel_size=(1, 1), stride=(1, 1), bias=False)
        (norm.2): BatchNorm2d(128, eps=1e-05, momentum=0.1, affine=True)
        (relu.2): ReLU(inplace)
        (conv.2): Conv2d(128, 32, kernel_size=(3, 3), stride=(1, 1), padding=(1, 1), bias=False)
      )
      (denselayer7): _DenseLayer(
        (norm.1): BatchNorm2d(448, eps=1e-05, momentum=0.1, affine=True)
        (relu.1): ReLU(inplace)
        (conv.1): Conv2d(448, 128, kernel_size=(1, 1), stride=(1, 1), bias=False)
        (norm.2): BatchNorm2d(128, eps=1e-05, momentum=0.1, affine=True)
        (relu.2): ReLU(inplace)
        (conv.2): Conv2d(128, 32, kernel_size=(3, 3), stride=(1, 1), padding=(1, 1), bias=False)
      )
      (denselayer8): _DenseLayer(
        (norm.1): BatchNorm2d(480, eps=1e-05, momentum=0.1, affine=True)
        (relu.1): ReLU(inplace)
        (conv.1): Conv2d(480, 128, kernel_size=(1, 1), stride=(1, 1), bias=False)
        (norm.2): BatchNorm2d(128, eps=1e-05, momentum=0.1, affine=True)
        (relu.2): ReLU(inplace)
        (conv.2): Conv2d(128, 32, kernel_size=(3, 3), stride=(1, 1), padding=(1, 1), bias=False)
      )
      (denselayer9): _DenseLayer(
        (norm.1): BatchNorm2d(512, eps=1e-05, momentum=0.1, affine=True)
        (relu.1): ReLU(inplace)
        (conv.1): Conv2d(512, 128, kernel_size=(1, 1), stride=(1, 1), bias=False)
        (norm.2): BatchNorm2d(128, eps=1e-05, momentum=0.1, affine=True)
        (relu.2): ReLU(inplace)
        (conv.2): Conv2d(128, 32, kernel_size=(3, 3), stride=(1, 1), padding=(1, 1), bias=False)
      )
      (denselayer10): _DenseLayer(
        (norm.1): BatchNorm2d(544, eps=1e-05, momentum=0.1, affine=True)
        (relu.1): ReLU(inplace)
        (conv.1): Conv2d(544, 128, kernel_size=(1, 1), stride=(1, 1), bias=False)
        (norm.2): BatchNorm2d(128, eps=1e-05, momentum=0.1, affine=True)
        (relu.2): ReLU(inplace)
        (conv.2): Conv2d(128, 32, kernel_size=(3, 3), stride=(1, 1), padding=(1, 1), bias=False)
      )
      (denselayer11): _DenseLayer(
        (norm.1): BatchNorm2d(576, eps=1e-05, momentum=0.1, affine=True)
        (relu.1): ReLU(inplace)
        (conv.1): Conv2d(576, 128, kernel_size=(1, 1), stride=(1, 1), bias=False)
        (norm.2): BatchNorm2d(128, eps=1e-05, momentum=0.1, affine=True)
        (relu.2): ReLU(inplace)
        (conv.2): Conv2d(128, 32, kernel_size=(3, 3), stride=(1, 1), padding=(1, 1), bias=False)
      )
      (denselayer12): _DenseLayer(
        (norm.1): BatchNorm2d(608, eps=1e-05, momentum=0.1, affine=True)
        (relu.1): ReLU(inplace)
        (conv.1): Conv2d(608, 128, kernel_size=(1, 1), stride=(1, 1), bias=False)
        (norm.2): BatchNorm2d(128, eps=1e-05, momentum=0.1, affine=True)
        (relu.2): ReLU(inplace)
        (conv.2): Conv2d(128, 32, kernel_size=(3, 3), stride=(1, 1), padding=(1, 1), bias=False)
      )
      (denselayer13): _DenseLayer(
        (norm.1): BatchNorm2d(640, eps=1e-05, momentum=0.1, affine=True)
        (relu.1): ReLU(inplace)
        (conv.1): Conv2d(640, 128, kernel_size=(1, 1), stride=(1, 1), bias=False)
        (norm.2): BatchNorm2d(128, eps=1e-05, momentum=0.1, affine=True)
        (relu.2): ReLU(inplace)
        (conv.2): Conv2d(128, 32, kernel_size=(3, 3), stride=(1, 1), padding=(1, 1), bias=False)
      )
      (denselayer14): _DenseLayer(
        (norm.1): BatchNorm2d(672, eps=1e-05, momentum=0.1, affine=True)
        (relu.1): ReLU(inplace)
        (conv.1): Conv2d(672, 128, kernel_size=(1, 1), stride=(1, 1), bias=False)
        (norm.2): BatchNorm2d(128, eps=1e-05, momentum=0.1, affine=True)
        (relu.2): ReLU(inplace)
        (conv.2): Conv2d(128, 32, kernel_size=(3, 3), stride=(1, 1), padding=(1, 1), bias=False)
      )
      (denselayer15): _DenseLayer(
        (norm.1): BatchNorm2d(704, eps=1e-05, momentum=0.1, affine=True)
        (relu.1): ReLU(inplace)
        (conv.1): Conv2d(704, 128, kernel_size=(1, 1), stride=(1, 1), bias=False)
        (norm.2): BatchNorm2d(128, eps=1e-05, momentum=0.1, affine=True)
        (relu.2): ReLU(inplace)
        (conv.2): Conv2d(128, 32, kernel_size=(3, 3), stride=(1, 1), padding=(1, 1), bias=False)
      )
      (denselayer16): _DenseLayer(
        (norm.1): BatchNorm2d(736, eps=1e-05, momentum=0.1, affine=True)
        (relu.1): ReLU(inplace)
        (conv.1): Conv2d(736, 128, kernel_size=(1, 1), stride=(1, 1), bias=False)
        (norm.2): BatchNorm2d(128, eps=1e-05, momentum=0.1, affine=True)
        (relu.2): ReLU(inplace)
        (conv.2): Conv2d(128, 32, kernel_size=(3, 3), stride=(1, 1), padding=(1, 1), bias=False)
      )
      (denselayer17): _DenseLayer(
        (norm.1): BatchNorm2d(768, eps=1e-05, momentum=0.1, affine=True)
        (relu.1): ReLU(inplace)
        (conv.1): Conv2d(768, 128, kernel_size=(1, 1), stride=(1, 1), bias=False)
        (norm.2): BatchNorm2d(128, eps=1e-05, momentum=0.1, affine=True)
        (relu.2): ReLU(inplace)
        (conv.2): Conv2d(128, 32, kernel_size=(3, 3), stride=(1, 1), padding=(1, 1), bias=False)
      )
      (denselayer18): _DenseLayer(
        (norm.1): BatchNorm2d(800, eps=1e-05, momentum=0.1, affine=True)
        (relu.1): ReLU(inplace)
        (conv.1): Conv2d(800, 128, kernel_size=(1, 1), stride=(1, 1), bias=False)
        (norm.2): BatchNorm2d(128, eps=1e-05, momentum=0.1, affine=True)
        (relu.2): ReLU(inplace)
        (conv.2): Conv2d(128, 32, kernel_size=(3, 3), stride=(1, 1), padding=(1, 1), bias=False)
      )
      (denselayer19): _DenseLayer(
        (norm.1): BatchNorm2d(832, eps=1e-05, momentum=0.1, affine=True)
        (relu.1): ReLU(inplace)
        (conv.1): Conv2d(832, 128, kernel_size=(1, 1), stride=(1, 1), bias=False)
        (norm.2): BatchNorm2d(128, eps=1e-05, momentum=0.1, affine=True)
        (relu.2): ReLU(inplace)
        (conv.2): Conv2d(128, 32, kernel_size=(3, 3), stride=(1, 1), padding=(1, 1), bias=False)
      )
      (denselayer20): _DenseLayer(
        (norm.1): BatchNorm2d(864, eps=1e-05, momentum=0.1, affine=True)
        (relu.1): ReLU(inplace)
        (conv.1): Conv2d(864, 128, kernel_size=(1, 1), stride=(1, 1), bias=False)
        (norm.2): BatchNorm2d(128, eps=1e-05, momentum=0.1, affine=True)
        (relu.2): ReLU(inplace)
        (conv.2): Conv2d(128, 32, kernel_size=(3, 3), stride=(1, 1), padding=(1, 1), bias=False)
      )
      (denselayer21): _DenseLayer(
        (norm.1): BatchNorm2d(896, eps=1e-05, momentum=0.1, affine=True)
        (relu.1): ReLU(inplace)
        (conv.1): Conv2d(896, 128, kernel_size=(1, 1), stride=(1, 1), bias=False)
        (norm.2): BatchNorm2d(128, eps=1e-05, momentum=0.1, affine=True)
        (relu.2): ReLU(inplace)
        (conv.2): Conv2d(128, 32, kernel_size=(3, 3), stride=(1, 1), padding=(1, 1), bias=False)
      )
      (denselayer22): _DenseLayer(
        (norm.1): BatchNorm2d(928, eps=1e-05, momentum=0.1, affine=True)
        (relu.1): ReLU(inplace)
        (conv.1): Conv2d(928, 128, kernel_size=(1, 1), stride=(1, 1), bias=False)
        (norm.2): BatchNorm2d(128, eps=1e-05, momentum=0.1, affine=True)
        (relu.2): ReLU(inplace)
        (conv.2): Conv2d(128, 32, kernel_size=(3, 3), stride=(1, 1), padding=(1, 1), bias=False)
      )
      (denselayer23): _DenseLayer(
        (norm.1): BatchNorm2d(960, eps=1e-05, momentum=0.1, affine=True)
        (relu.1): ReLU(inplace)
        (conv.1): Conv2d(960, 128, kernel_size=(1, 1), stride=(1, 1), bias=False)
        (norm.2): BatchNorm2d(128, eps=1e-05, momentum=0.1, affine=True)
        (relu.2): ReLU(inplace)
        (conv.2): Conv2d(128, 32, kernel_size=(3, 3), stride=(1, 1), padding=(1, 1), bias=False)
      )
      (denselayer24): _DenseLayer(
        (norm.1): BatchNorm2d(992, eps=1e-05, momentum=0.1, affine=True)
        (relu.1): ReLU(inplace)
        (conv.1): Conv2d(992, 128, kernel_size=(1, 1), stride=(1, 1), bias=False)
        (norm.2): BatchNorm2d(128, eps=1e-05, momentum=0.1, affine=True)
        (relu.2): ReLU(inplace)
        (conv.2): Conv2d(128, 32, kernel_size=(3, 3), stride=(1, 1), padding=(1, 1), bias=False)
      )
      (denselayer25): _DenseLayer(
        (norm.1): BatchNorm2d(1024, eps=1e-05, momentum=0.1, affine=True)
        (relu.1): ReLU(inplace)
        (conv.1): Conv2d(1024, 128, kernel_size=(1, 1), stride=(1, 1), bias=False)
        (norm.2): BatchNorm2d(128, eps=1e-05, momentum=0.1, affine=True)
        (relu.2): ReLU(inplace)
        (conv.2): Conv2d(128, 32, kernel_size=(3, 3), stride=(1, 1), padding=(1, 1), bias=False)
      )
      (denselayer26): _DenseLayer(
        (norm.1): BatchNorm2d(1056, eps=1e-05, momentum=0.1, affine=True)
        (relu.1): ReLU(inplace)
        (conv.1): Conv2d(1056, 128, kernel_size=(1, 1), stride=(1, 1), bias=False)
        (norm.2): BatchNorm2d(128, eps=1e-05, momentum=0.1, affine=True)
        (relu.2): ReLU(inplace)
        (conv.2): Conv2d(128, 32, kernel_size=(3, 3), stride=(1, 1), padding=(1, 1), bias=False)
      )
      (denselayer27): _DenseLayer(
        (norm.1): BatchNorm2d(1088, eps=1e-05, momentum=0.1, affine=True)
        (relu.1): ReLU(inplace)
        (conv.1): Conv2d(1088, 128, kernel_size=(1, 1), stride=(1, 1), bias=False)
        (norm.2): BatchNorm2d(128, eps=1e-05, momentum=0.1, affine=True)
        (relu.2): ReLU(inplace)
        (conv.2): Conv2d(128, 32, kernel_size=(3, 3), stride=(1, 1), padding=(1, 1), bias=False)
      )
      (denselayer28): _DenseLayer(
        (norm.1): BatchNorm2d(1120, eps=1e-05, momentum=0.1, affine=True)
        (relu.1): ReLU(inplace)
        (conv.1): Conv2d(1120, 128, kernel_size=(1, 1), stride=(1, 1), bias=False)
        (norm.2): BatchNorm2d(128, eps=1e-05, momentum=0.1, affine=True)
        (relu.2): ReLU(inplace)
        (conv.2): Conv2d(128, 32, kernel_size=(3, 3), stride=(1, 1), padding=(1, 1), bias=False)
      )
      (denselayer29): _DenseLayer(
        (norm.1): BatchNorm2d(1152, eps=1e-05, momentum=0.1, affine=True)
        (relu.1): ReLU(inplace)
        (conv.1): Conv2d(1152, 128, kernel_size=(1, 1), stride=(1, 1), bias=False)
        (norm.2): BatchNorm2d(128, eps=1e-05, momentum=0.1, affine=True)
        (relu.2): ReLU(inplace)
        (conv.2): Conv2d(128, 32, kernel_size=(3, 3), stride=(1, 1), padding=(1, 1), bias=False)
      )
      (denselayer30): _DenseLayer(
        (norm.1): BatchNorm2d(1184, eps=1e-05, momentum=0.1, affine=True)
        (relu.1): ReLU(inplace)
        (conv.1): Conv2d(1184, 128, kernel_size=(1, 1), stride=(1, 1), bias=False)
        (norm.2): BatchNorm2d(128, eps=1e-05, momentum=0.1, affine=True)
        (relu.2): ReLU(inplace)
        (conv.2): Conv2d(128, 32, kernel_size=(3, 3), stride=(1, 1), padding=(1, 1), bias=False)
      )
      (denselayer31): _DenseLayer(
        (norm.1): BatchNorm2d(1216, eps=1e-05, momentum=0.1, affine=True)
        (relu.1): ReLU(inplace)
        (conv.1): Conv2d(1216, 128, kernel_size=(1, 1), stride=(1, 1), bias=False)
        (norm.2): BatchNorm2d(128, eps=1e-05, momentum=0.1, affine=True)
        (relu.2): ReLU(inplace)
        (conv.2): Conv2d(128, 32, kernel_size=(3, 3), stride=(1, 1), padding=(1, 1), bias=False)
      )
      (denselayer32): _DenseLayer(
        (norm.1): BatchNorm2d(1248, eps=1e-05, momentum=0.1, affine=True)
        (relu.1): ReLU(inplace)
        (conv.1): Conv2d(1248, 128, kernel_size=(1, 1), stride=(1, 1), bias=False)
        (norm.2): BatchNorm2d(128, eps=1e-05, momentum=0.1, affine=True)
        (relu.2): ReLU(inplace)
        (conv.2): Conv2d(128, 32, kernel_size=(3, 3), stride=(1, 1), padding=(1, 1), bias=False)
      )
    )
    (densblock3_3): _DenseBlock(
      (denselayer1): _DenseLayer(
        (norm.1): BatchNorm2d(640, eps=1e-05, momentum=0.1, affine=True)
        (relu.1): ReLU(inplace)
        (conv.1): Conv2d(640, 128, kernel_size=(1, 1), stride=(1, 1), bias=False)
        (norm.2): BatchNorm2d(128, eps=1e-05, momentum=0.1, affine=True)
        (relu.2): ReLU(inplace)
        (conv.2): Conv2d(128, 32, kernel_size=(3, 3), stride=(1, 1), padding=(1, 1), bias=False)
      )
      (denselayer2): _DenseLayer(
        (norm.1): BatchNorm2d(672, eps=1e-05, momentum=0.1, affine=True)
        (relu.1): ReLU(inplace)
        (conv.1): Conv2d(672, 128, kernel_size=(1, 1), stride=(1, 1), bias=False)
        (norm.2): BatchNorm2d(128, eps=1e-05, momentum=0.1, affine=True)
        (relu.2): ReLU(inplace)
        (conv.2): Conv2d(128, 32, kernel_size=(3, 3), stride=(1, 1), padding=(1, 1), bias=False)
      )
      (denselayer3): _DenseLayer(
        (norm.1): BatchNorm2d(704, eps=1e-05, momentum=0.1, affine=True)
        (relu.1): ReLU(inplace)
        (conv.1): Conv2d(704, 128, kernel_size=(1, 1), stride=(1, 1), bias=False)
        (norm.2): BatchNorm2d(128, eps=1e-05, momentum=0.1, affine=True)
        (relu.2): ReLU(inplace)
        (conv.2): Conv2d(128, 32, kernel_size=(3, 3), stride=(1, 1), padding=(1, 1), bias=False)
      )
      (denselayer4): _DenseLayer(
        (norm.1): BatchNorm2d(736, eps=1e-05, momentum=0.1, affine=True)
        (relu.1): ReLU(inplace)
        (conv.1): Conv2d(736, 128, kernel_size=(1, 1), stride=(1, 1), bias=False)
        (norm.2): BatchNorm2d(128, eps=1e-05, momentum=0.1, affine=True)
        (relu.2): ReLU(inplace)
        (conv.2): Conv2d(128, 32, kernel_size=(3, 3), stride=(1, 1), padding=(1, 1), bias=False)
      )
      (denselayer5): _DenseLayer(
        (norm.1): BatchNorm2d(768, eps=1e-05, momentum=0.1, affine=True)
        (relu.1): ReLU(inplace)
        (conv.1): Conv2d(768, 128, kernel_size=(1, 1), stride=(1, 1), bias=False)
        (norm.2): BatchNorm2d(128, eps=1e-05, momentum=0.1, affine=True)
        (relu.2): ReLU(inplace)
        (conv.2): Conv2d(128, 32, kernel_size=(3, 3), stride=(1, 1), padding=(1, 1), bias=False)
      )
      (denselayer6): _DenseLayer(
        (norm.1): BatchNorm2d(800, eps=1e-05, momentum=0.1, affine=True)
        (relu.1): ReLU(inplace)
        (conv.1): Conv2d(800, 128, kernel_size=(1, 1), stride=(1, 1), bias=False)
        (norm.2): BatchNorm2d(128, eps=1e-05, momentum=0.1, affine=True)
        (relu.2): ReLU(inplace)
        (conv.2): Conv2d(128, 32, kernel_size=(3, 3), stride=(1, 1), padding=(1, 1), bias=False)
      )
      (denselayer7): _DenseLayer(
        (norm.1): BatchNorm2d(832, eps=1e-05, momentum=0.1, affine=True)
        (relu.1): ReLU(inplace)
        (conv.1): Conv2d(832, 128, kernel_size=(1, 1), stride=(1, 1), bias=False)
        (norm.2): BatchNorm2d(128, eps=1e-05, momentum=0.1, affine=True)
        (relu.2): ReLU(inplace)
        (conv.2): Conv2d(128, 32, kernel_size=(3, 3), stride=(1, 1), padding=(1, 1), bias=False)
      )
      (denselayer8): _DenseLayer(
        (norm.1): BatchNorm2d(864, eps=1e-05, momentum=0.1, affine=True)
        (relu.1): ReLU(inplace)
        (conv.1): Conv2d(864, 128, kernel_size=(1, 1), stride=(1, 1), bias=False)
        (norm.2): BatchNorm2d(128, eps=1e-05, momentum=0.1, affine=True)
        (relu.2): ReLU(inplace)
        (conv.2): Conv2d(128, 32, kernel_size=(3, 3), stride=(1, 1), padding=(1, 1), bias=False)
      )
      (denselayer9): _DenseLayer(
        (norm.1): BatchNorm2d(896, eps=1e-05, momentum=0.1, affine=True)
        (relu.1): ReLU(inplace)
        (conv.1): Conv2d(896, 128, kernel_size=(1, 1), stride=(1, 1), bias=False)
        (norm.2): BatchNorm2d(128, eps=1e-05, momentum=0.1, affine=True)
        (relu.2): ReLU(inplace)
        (conv.2): Conv2d(128, 32, kernel_size=(3, 3), stride=(1, 1), padding=(1, 1), bias=False)
      )
      (denselayer10): _DenseLayer(
        (norm.1): BatchNorm2d(928, eps=1e-05, momentum=0.1, affine=True)
        (relu.1): ReLU(inplace)
        (conv.1): Conv2d(928, 128, kernel_size=(1, 1), stride=(1, 1), bias=False)
        (norm.2): BatchNorm2d(128, eps=1e-05, momentum=0.1, affine=True)
        (relu.2): ReLU(inplace)
        (conv.2): Conv2d(128, 32, kernel_size=(3, 3), stride=(1, 1), padding=(1, 1), bias=False)
      )
      (denselayer11): _DenseLayer(
        (norm.1): BatchNorm2d(960, eps=1e-05, momentum=0.1, affine=True)
        (relu.1): ReLU(inplace)
        (conv.1): Conv2d(960, 128, kernel_size=(1, 1), stride=(1, 1), bias=False)
        (norm.2): BatchNorm2d(128, eps=1e-05, momentum=0.1, affine=True)
        (relu.2): ReLU(inplace)
        (conv.2): Conv2d(128, 32, kernel_size=(3, 3), stride=(1, 1), padding=(1, 1), bias=False)
      )
      (denselayer12): _DenseLayer(
        (norm.1): BatchNorm2d(992, eps=1e-05, momentum=0.1, affine=True)
        (relu.1): ReLU(inplace)
        (conv.1): Conv2d(992, 128, kernel_size=(1, 1), stride=(1, 1), bias=False)
        (norm.2): BatchNorm2d(128, eps=1e-05, momentum=0.1, affine=True)
        (relu.2): ReLU(inplace)
        (conv.2): Conv2d(128, 32, kernel_size=(3, 3), stride=(1, 1), padding=(1, 1), bias=False)
      )
      (denselayer13): _DenseLayer(
        (norm.1): BatchNorm2d(1024, eps=1e-05, momentum=0.1, affine=True)
        (relu.1): ReLU(inplace)
        (conv.1): Conv2d(1024, 128, kernel_size=(1, 1), stride=(1, 1), bias=False)
        (norm.2): BatchNorm2d(128, eps=1e-05, momentum=0.1, affine=True)
        (relu.2): ReLU(inplace)
        (conv.2): Conv2d(128, 32, kernel_size=(3, 3), stride=(1, 1), padding=(1, 1), bias=False)
      )
      (denselayer14): _DenseLayer(
        (norm.1): BatchNorm2d(1056, eps=1e-05, momentum=0.1, affine=True)
        (relu.1): ReLU(inplace)
        (conv.1): Conv2d(1056, 128, kernel_size=(1, 1), stride=(1, 1), bias=False)
        (norm.2): BatchNorm2d(128, eps=1e-05, momentum=0.1, affine=True)
        (relu.2): ReLU(inplace)
        (conv.2): Conv2d(128, 32, kernel_size=(3, 3), stride=(1, 1), padding=(1, 1), bias=False)
      )
      (denselayer15): _DenseLayer(
        (norm.1): BatchNorm2d(1088, eps=1e-05, momentum=0.1, affine=True)
        (relu.1): ReLU(inplace)
        (conv.1): Conv2d(1088, 128, kernel_size=(1, 1), stride=(1, 1), bias=False)
        (norm.2): BatchNorm2d(128, eps=1e-05, momentum=0.1, affine=True)
        (relu.2): ReLU(inplace)
        (conv.2): Conv2d(128, 32, kernel_size=(3, 3), stride=(1, 1), padding=(1, 1), bias=False)
      )
      (denselayer16): _DenseLayer(
        (norm.1): BatchNorm2d(1120, eps=1e-05, momentum=0.1, affine=True)
        (relu.1): ReLU(inplace)
        (conv.1): Conv2d(1120, 128, kernel_size=(1, 1), stride=(1, 1), bias=False)
        (norm.2): BatchNorm2d(128, eps=1e-05, momentum=0.1, affine=True)
        (relu.2): ReLU(inplace)
        (conv.2): Conv2d(128, 32, kernel_size=(3, 3), stride=(1, 1), padding=(1, 1), bias=False)
      )
      (denselayer17): _DenseLayer(
        (norm.1): BatchNorm2d(1152, eps=1e-05, momentum=0.1, affine=True)
        (relu.1): ReLU(inplace)
        (conv.1): Conv2d(1152, 128, kernel_size=(1, 1), stride=(1, 1), bias=False)
        (norm.2): BatchNorm2d(128, eps=1e-05, momentum=0.1, affine=True)
        (relu.2): ReLU(inplace)
        (conv.2): Conv2d(128, 32, kernel_size=(3, 3), stride=(1, 1), padding=(1, 1), bias=False)
      )
      (denselayer18): _DenseLayer(
        (norm.1): BatchNorm2d(1184, eps=1e-05, momentum=0.1, affine=True)
        (relu.1): ReLU(inplace)
        (conv.1): Conv2d(1184, 128, kernel_size=(1, 1), stride=(1, 1), bias=False)
        (norm.2): BatchNorm2d(128, eps=1e-05, momentum=0.1, affine=True)
        (relu.2): ReLU(inplace)
        (conv.2): Conv2d(128, 32, kernel_size=(3, 3), stride=(1, 1), padding=(1, 1), bias=False)
      )
      (denselayer19): _DenseLayer(
        (norm.1): BatchNorm2d(1216, eps=1e-05, momentum=0.1, affine=True)
        (relu.1): ReLU(inplace)
        (conv.1): Conv2d(1216, 128, kernel_size=(1, 1), stride=(1, 1), bias=False)
        (norm.2): BatchNorm2d(128, eps=1e-05, momentum=0.1, affine=True)
        (relu.2): ReLU(inplace)
        (conv.2): Conv2d(128, 32, kernel_size=(3, 3), stride=(1, 1), padding=(1, 1), bias=False)
      )
      (denselayer20): _DenseLayer(
        (norm.1): BatchNorm2d(1248, eps=1e-05, momentum=0.1, affine=True)
        (relu.1): ReLU(inplace)
        (conv.1): Conv2d(1248, 128, kernel_size=(1, 1), stride=(1, 1), bias=False)
        (norm.2): BatchNorm2d(128, eps=1e-05, momentum=0.1, affine=True)
        (relu.2): ReLU(inplace)
        (conv.2): Conv2d(128, 32, kernel_size=(3, 3), stride=(1, 1), padding=(1, 1), bias=False)
      )
      (denselayer21): _DenseLayer(
        (norm.1): BatchNorm2d(1280, eps=1e-05, momentum=0.1, affine=True)
        (relu.1): ReLU(inplace)
        (conv.1): Conv2d(1280, 128, kernel_size=(1, 1), stride=(1, 1), bias=False)
        (norm.2): BatchNorm2d(128, eps=1e-05, momentum=0.1, affine=True)
        (relu.2): ReLU(inplace)
        (conv.2): Conv2d(128, 32, kernel_size=(3, 3), stride=(1, 1), padding=(1, 1), bias=False)
      )
      (denselayer22): _DenseLayer(
        (norm.1): BatchNorm2d(1312, eps=1e-05, momentum=0.1, affine=True)
        (relu.1): ReLU(inplace)
        (conv.1): Conv2d(1312, 128, kernel_size=(1, 1), stride=(1, 1), bias=False)
        (norm.2): BatchNorm2d(128, eps=1e-05, momentum=0.1, affine=True)
        (relu.2): ReLU(inplace)
        (conv.2): Conv2d(128, 32, kernel_size=(3, 3), stride=(1, 1), padding=(1, 1), bias=False)
      )
      (denselayer23): _DenseLayer(
        (norm.1): BatchNorm2d(1344, eps=1e-05, momentum=0.1, affine=True)
        (relu.1): ReLU(inplace)
        (conv.1): Conv2d(1344, 128, kernel_size=(1, 1), stride=(1, 1), bias=False)
        (norm.2): BatchNorm2d(128, eps=1e-05, momentum=0.1, affine=True)
        (relu.2): ReLU(inplace)
        (conv.2): Conv2d(128, 32, kernel_size=(3, 3), stride=(1, 1), padding=(1, 1), bias=False)
      )
      (denselayer24): _DenseLayer(
        (norm.1): BatchNorm2d(1376, eps=1e-05, momentum=0.1, affine=True)
        (relu.1): ReLU(inplace)
        (conv.1): Conv2d(1376, 128, kernel_size=(1, 1), stride=(1, 1), bias=False)
        (norm.2): BatchNorm2d(128, eps=1e-05, momentum=0.1, affine=True)
        (relu.2): ReLU(inplace)
        (conv.2): Conv2d(128, 32, kernel_size=(3, 3), stride=(1, 1), padding=(1, 1), bias=False)
      )
      (denselayer25): _DenseLayer(
        (norm.1): BatchNorm2d(1408, eps=1e-05, momentum=0.1, affine=True)
        (relu.1): ReLU(inplace)
        (conv.1): Conv2d(1408, 128, kernel_size=(1, 1), stride=(1, 1), bias=False)
        (norm.2): BatchNorm2d(128, eps=1e-05, momentum=0.1, affine=True)
        (relu.2): ReLU(inplace)
        (conv.2): Conv2d(128, 32, kernel_size=(3, 3), stride=(1, 1), padding=(1, 1), bias=False)
      )
      (denselayer26): _DenseLayer(
        (norm.1): BatchNorm2d(1440, eps=1e-05, momentum=0.1, affine=True)
        (relu.1): ReLU(inplace)
        (conv.1): Conv2d(1440, 128, kernel_size=(1, 1), stride=(1, 1), bias=False)
        (norm.2): BatchNorm2d(128, eps=1e-05, momentum=0.1, affine=True)
        (relu.2): ReLU(inplace)
        (conv.2): Conv2d(128, 32, kernel_size=(3, 3), stride=(1, 1), padding=(1, 1), bias=False)
      )
      (denselayer27): _DenseLayer(
        (norm.1): BatchNorm2d(1472, eps=1e-05, momentum=0.1, affine=True)
        (relu.1): ReLU(inplace)
        (conv.1): Conv2d(1472, 128, kernel_size=(1, 1), stride=(1, 1), bias=False)
        (norm.2): BatchNorm2d(128, eps=1e-05, momentum=0.1, affine=True)
        (relu.2): ReLU(inplace)
        (conv.2): Conv2d(128, 32, kernel_size=(3, 3), stride=(1, 1), padding=(1, 1), bias=False)
      )
      (denselayer28): _DenseLayer(
        (norm.1): BatchNorm2d(1504, eps=1e-05, momentum=0.1, affine=True)
        (relu.1): ReLU(inplace)
        (conv.1): Conv2d(1504, 128, kernel_size=(1, 1), stride=(1, 1), bias=False)
        (norm.2): BatchNorm2d(128, eps=1e-05, momentum=0.1, affine=True)
        (relu.2): ReLU(inplace)
        (conv.2): Conv2d(128, 32, kernel_size=(3, 3), stride=(1, 1), padding=(1, 1), bias=False)
      )
      (denselayer29): _DenseLayer(
        (norm.1): BatchNorm2d(1536, eps=1e-05, momentum=0.1, affine=True)
        (relu.1): ReLU(inplace)
        (conv.1): Conv2d(1536, 128, kernel_size=(1, 1), stride=(1, 1), bias=False)
        (norm.2): BatchNorm2d(128, eps=1e-05, momentum=0.1, affine=True)
        (relu.2): ReLU(inplace)
        (conv.2): Conv2d(128, 32, kernel_size=(3, 3), stride=(1, 1), padding=(1, 1), bias=False)
      )
      (denselayer30): _DenseLayer(
        (norm.1): BatchNorm2d(1568, eps=1e-05, momentum=0.1, affine=True)
        (relu.1): ReLU(inplace)
        (conv.1): Conv2d(1568, 128, kernel_size=(1, 1), stride=(1, 1), bias=False)
        (norm.2): BatchNorm2d(128, eps=1e-05, momentum=0.1, affine=True)
        (relu.2): ReLU(inplace)
        (conv.2): Conv2d(128, 32, kernel_size=(3, 3), stride=(1, 1), padding=(1, 1), bias=False)
      )
      (denselayer31): _DenseLayer(
        (norm.1): BatchNorm2d(1600, eps=1e-05, momentum=0.1, affine=True)
        (relu.1): ReLU(inplace)
        (conv.1): Conv2d(1600, 128, kernel_size=(1, 1), stride=(1, 1), bias=False)
        (norm.2): BatchNorm2d(128, eps=1e-05, momentum=0.1, affine=True)
        (relu.2): ReLU(inplace)
        (conv.2): Conv2d(128, 32, kernel_size=(3, 3), stride=(1, 1), padding=(1, 1), bias=False)
      )
      (denselayer32): _DenseLayer(
        (norm.1): BatchNorm2d(1632, eps=1e-05, momentum=0.1, affine=True)
        (relu.1): ReLU(inplace)
        (conv.1): Conv2d(1632, 128, kernel_size=(1, 1), stride=(1, 1), bias=False)
        (norm.2): BatchNorm2d(128, eps=1e-05, momentum=0.1, affine=True)
        (relu.2): ReLU(inplace)
        (conv.2): Conv2d(128, 32, kernel_size=(3, 3), stride=(1, 1), padding=(1, 1), bias=False)
      )
    )
    (trans1_1): Sequential(
      (0): BatchNorm2d(256, eps=1e-05, momentum=0.1, affine=True)
      (1): ReLU(inplace)
      (2): Conv2d(256, 128, kernel_size=(1, 1), stride=(1, 1), bias=False)
    )
    (trans1_2): Sequential(
      (0): BatchNorm2d(2176, eps=1e-05, momentum=0.1, affine=True)
      (1): ReLU(inplace)
      (2): Conv2d(2176, 256, kernel_size=(1, 1), stride=(1, 1), bias=False)
    )
    (trans1_3): Sequential(
      (0): BatchNorm2d(1280, eps=1e-05, momentum=0.1, affine=True)
      (1): ReLU(inplace)
      (2): Conv2d(1280, 640, kernel_size=(1, 1), stride=(1, 1), bias=False)
    )
    (trans2_1): Sequential(
      (0): BatchNorm2d(512, eps=1e-05, momentum=0.1, affine=True)
      (1): ReLU(inplace)
      (2): Conv2d(512, 128, kernel_size=(1, 1), stride=(1, 1), bias=False)
    )
    (trans2_2): Sequential(
      (0): BatchNorm2d(2176, eps=1e-05, momentum=0.1, affine=True)
      (1): ReLU(inplace)
      (2): Conv2d(2176, 256, kernel_size=(1, 1), stride=(1, 1), bias=False)
    )
    (trans2_3): Sequential(
      (0): BatchNorm2d(1280, eps=1e-05, momentum=0.1, affine=True)
      (1): ReLU(inplace)
      (2): Conv2d(1280, 640, kernel_size=(1, 1), stride=(1, 1), bias=False)
    )
    (trans3_1): Sequential(
      (0): BatchNorm2d(1024, eps=1e-05, momentum=0.1, affine=True)
      (1): ReLU(inplace)
      (2): Conv2d(1024, 128, kernel_size=(1, 1), stride=(1, 1), bias=False)
    )
    (trans3_2): Sequential(
      (0): BatchNorm2d(2560, eps=1e-05, momentum=0.1, affine=True)
      (1): ReLU(inplace)
      (2): Conv2d(2560, 256, kernel_size=(1, 1), stride=(1, 1), bias=False)
    )
    (trans3_3): Sequential(
      (0): BatchNorm2d(1280, eps=1e-05, momentum=0.1, affine=True)
      (1): ReLU(inplace)
      (2): Conv2d(1280, 640, kernel_size=(1, 1), stride=(1, 1), bias=False)
    )
    (trans_final): Sequential(
      (0): BatchNorm2d(1664, eps=1e-05, momentum=0.1, affine=True)
      (1): ReLU(inplace)
      (2): Conv2d(1664, 2, kernel_size=(1, 1), stride=(1, 1), bias=False)
    )
    (upsample1): Upsample(scale_factor=2, mode=bilinear)
    (upsample2): Upsample(scale_factor=2, mode=bilinear)
    (upsample3): Upsample(scale_factor=2, mode=bilinear)
    (ada_pooling): AdaptiveAvgPool2d(output_size=(1, 1))
  )
)
Training images: 36808 Validation images: 3197
0it [00:00, ?it/s]main.py:107: UserWarning: Implicit dimension choice for softmax has been deprecated. Change the call to include dim=X as an argument.
…
